node {
  name: "inputs/Const"
  op: "Const"
  device: "/device:CPU:0"
  attr {
    key: "_output_shapes"
    value {
      list {
        shape {
          dim {
            size: 8000
          }
        }
      }
    }
  }
  attr {
    key: "dtype"
    value {
      type: DT_STRING
    }
  }
  attr {
    key: "value"
    value {
      tensor {
        dtype: DT_STRING
        tensor_shape {
          dim {
            size: 8000
          }
        }
        string_val: "2656"
        string_val: "445"
        string_val: "9505"
        string_val: "332"
        string_val: "4168"
        string_val: "2364"
        string_val: "6097"
        string_val: "7"
        string_val: "7752"
        string_val: "4453"
        string_val: "4743"
        string_val: "6243"
        string_val: "3126"
        string_val: "4056"
        string_val: "5852"
        string_val: "628"
        string_val: "8545"
        string_val: "2481"
        string_val: "9743"
        string_val: "1335"
        string_val: "2683"
        string_val: "4566"
        string_val: "2514"
        string_val: "9353"
        string_val: "1907"
        string_val: "2802"
        string_val: "6890"
        string_val: "784"
        string_val: "9489"
        string_val: "6893"
        string_val: "4110"
        string_val: "7641"
        string_val: "8573"
        string_val: "9201"
        string_val: "5241"
        string_val: "1927"
        string_val: "6292"
        string_val: "8081"
        string_val: "6710"
        string_val: "4757"
        string_val: "546"
        string_val: "3042"
        string_val: "1859"
        string_val: "5125"
        string_val: "8288"
        string_val: "3085"
        string_val: "2374"
        string_val: "6408"
        string_val: "6799"
        string_val: "6912"
        string_val: "8770"
        string_val: "8205"
        string_val: "5339"
        string_val: "4857"
        string_val: "9835"
        string_val: "4684"
        string_val: "4387"
        string_val: "1947"
        string_val: "7979"
        string_val: "2129"
        string_val: "6906"
        string_val: "7899"
        string_val: "4280"
        string_val: "3983"
        string_val: "5368"
        string_val: "6064"
        string_val: "3453"
        string_val: "3105"
        string_val: "3676"
        string_val: "6517"
        string_val: "6415"
        string_val: "3076"
        string_val: "2903"
        string_val: "8945"
        string_val: "5335"
        string_val: "3328"
        string_val: "2742"
        string_val: "9403"
        string_val: "4775"
        string_val: "4745"
        string_val: "4172"
        string_val: "7708"
        string_val: "5739"
        string_val: "6521"
        string_val: "6088"
        string_val: "6816"
        string_val: "749"
        string_val: "3484"
        string_val: "799"
        string_val: "5850"
        string_val: "2315"
        string_val: "516"
        string_val: "5072"
        string_val: "2443"
        string_val: "9579"
        string_val: "8994"
        string_val: "1582"
        string_val: "444"
        string_val: "3705"
        string_val: "641"
        string_val: "2661"
        string_val: "9220"
        string_val: "6022"
        string_val: "7165"
        string_val: "981"
        string_val: "8300"
        string_val: "8910"
        string_val: "9740"
        string_val: "6993"
        string_val: "1860"
        string_val: "3554"
        string_val: "9270"
        string_val: "5515"
        string_val: "1599"
        string_val: "920"
        string_val: "9493"
        string_val: "905"
        string_val: "723"
        string_val: "8862"
        string_val: "5505"
        string_val: "2860"
        string_val: "8914"
        string_val: "494"
        string_val: "9629"
        string_val: "7252"
        string_val: "2759"
        string_val: "2198"
        string_val: "5327"
        string_val: "9106"
        string_val: "4233"
        string_val: "2190"
        string_val: "2158"
        string_val: "4800"
        string_val: "9583"
        string_val: "1087"
        string_val: "1738"
        string_val: "369"
        string_val: "221"
        string_val: "1660"
        string_val: "5007"
        string_val: "5858"
        string_val: "2921"
        string_val: "4646"
        string_val: "3951"
        string_val: "7126"
        string_val: "2929"
        string_val: "8084"
        string_val: "1680"
        string_val: "5834"
        string_val: "6304"
        string_val: "1871"
        string_val: "1217"
        string_val: "2401"
        string_val: "6705"
        string_val: "7000"
        string_val: "7048"
        string_val: "4422"
        string_val: "5997"
        string_val: "5604"
        string_val: "2055"
        string_val: "6218"
        string_val: "2246"
        string_val: "3396"
        string_val: "5992"
        string_val: "6072"
        string_val: "6136"
        string_val: "2492"
        string_val: "7519"
        string_val: "741"
        string_val: "2752"
        string_val: "5574"
        string_val: "2357"
        string_val: "2977"
        string_val: "7363"
        string_val: "3305"
        string_val: "5243"
        string_val: "2024"
        string_val: "613"
        string_val: "1221"
        string_val: "6588"
        string_val: "5333"
        string_val: "6114"
        string_val: "8507"
        string_val: "926"
        string_val: "1555"
        string_val: "2013"
        string_val: "2943"
        string_val: "4357"
        string_val: "451"
        string_val: "8302"
        string_val: "8973"
        string_val: "7336"
        string_val: "7437"
        string_val: "2243"
        string_val: "4880"
        string_val: "1130"
        string_val: "449"
        string_val: "9055"
        string_val: "761"
        string_val: "3269"
        string_val: "7399"
        string_val: "1578"
        string_val: "3732"
        string_val: "6859"
        string_val: "3852"
        string_val: "5960"
        string_val: "2467"
        string_val: "4329"
        string_val: "9322"
        string_val: "7937"
        string_val: "919"
        string_val: "7622"
        string_val: "3563"
        string_val: "5541"
        string_val: "2612"
        string_val: "1038"
        string_val: "207"
        string_val: "1077"
        string_val: "7006"
        string_val: "798"
        string_val: "4253"
        string_val: "5799"
        string_val: "3564"
        string_val: "3277"
        string_val: "6253"
        string_val: "2280"
        string_val: "6391"
        string_val: "8853"
        string_val: "758"
        string_val: "5691"
        string_val: "2725"
        string_val: "3522"
        string_val: "5748"
        string_val: "6854"
        string_val: "7053"
        string_val: "7476"
        string_val: "7680"
        string_val: "6880"
        string_val: "4892"
        string_val: "5512"
        string_val: "5915"
        string_val: "5090"
        string_val: "3096"
        string_val: "2346"
        string_val: "9913"
        string_val: "1127"
        string_val: "3429"
        string_val: "1633"
        string_val: "6979"
        string_val: "2667"
        string_val: "1545"
        string_val: "6120"
        string_val: "2056"
        string_val: "5918"
        string_val: "774"
        string_val: "8742"
        string_val: "4612"
        string_val: "9261"
        string_val: "3920"
        string_val: "8777"
        string_val: "1482"
        string_val: "7718"
        string_val: "1333"
        string_val: "2253"
        string_val: "3539"
        string_val: "6508"
        string_val: "3229"
        string_val: "5460"
        string_val: "3394"
        string_val: "572"
        string_val: "1211"
        string_val: "209"
        string_val: "6590"
        string_val: "9181"
        string_val: "1841"
        string_val: "481"
        string_val: "3746"
        string_val: "8266"
        string_val: "3913"
        string_val: "9666"
        string_val: "8340"
        string_val: "415"
        string_val: "3661"
        string_val: "8253"
        string_val: "7723"
        string_val: "2096"
        string_val: "5764"
        string_val: "3729"
        string_val: "8236"
        string_val: "2265"
        string_val: "1252"
        string_val: "8445"
        string_val: "7005"
        string_val: "9275"
        string_val: "1799"
        string_val: "923"
        string_val: "8038"
        string_val: "8732"
        string_val: "2369"
        string_val: "7720"
        string_val: "1066"
        string_val: "7953"
        string_val: "8333"
        string_val: "2363"
        string_val: "4810"
        string_val: "1301"
        string_val: "4145"
        string_val: "4511"
        string_val: "2399"
        string_val: "5198"
        string_val: "5559"
        string_val: "9490"
        string_val: "264"
        string_val: "2432"
        string_val: "6908"
        string_val: "765"
        string_val: "3134"
        string_val: "748"
        string_val: "6995"
        string_val: "7867"
        string_val: "6630"
        string_val: "9520"
        string_val: "8380"
        string_val: "7550"
        string_val: "2970"
        string_val: "4620"
        string_val: "7230"
        string_val: "4819"
        string_val: "6287"
        string_val: "9017"
        string_val: "5991"
        string_val: "6861"
        string_val: "567"
        string_val: "4204"
        string_val: "6007"
        string_val: "8310"
        string_val: "5081"
        string_val: "4341"
        string_val: "3835"
        string_val: "9247"
        string_val: "9576"
        string_val: "3530"
        string_val: "1004"
        string_val: "9064"
        string_val: "9000"
        string_val: "7998"
        string_val: "14"
        string_val: "1338"
        string_val: "5988"
        string_val: "7169"
        string_val: "156"
        string_val: "5247"
        string_val: "9944"
        string_val: "5078"
        string_val: "3104"
        string_val: "646"
        string_val: "6419"
        string_val: "4853"
        string_val: "9628"
        string_val: "9880"
        string_val: "9631"
        string_val: "7868"
        string_val: "6371"
        string_val: "3103"
        string_val: "7425"
        string_val: "7473"
        string_val: "5020"
        string_val: "893"
        string_val: "5975"
        string_val: "9744"
        string_val: "9814"
        string_val: "9509"
        string_val: "9514"
        string_val: "19"
        string_val: "1880"
        string_val: "2078"
        string_val: "9022"
        string_val: "7309"
        string_val: "5386"
        string_val: "6024"
        string_val: "4025"
        string_val: "9369"
        string_val: "4418"
        string_val: "1214"
        string_val: "4680"
        string_val: "3846"
        string_val: "4849"
        string_val: "1809"
        string_val: "1283"
        string_val: "5795"
        string_val: "4364"
        string_val: "7361"
        string_val: "2106"
        string_val: "2088"
        string_val: "2513"
        string_val: "8830"
        string_val: "1033"
        string_val: "8090"
        string_val: "8550"
        string_val: "7308"
        string_val: "8125"
        string_val: "4044"
        string_val: "8315"
        string_val: "2906"
        string_val: "888"
        string_val: "6410"
        string_val: "5265"
        string_val: "2673"
        string_val: "3710"
        string_val: "4228"
        string_val: "1542"
        string_val: "7241"
        string_val: "4146"
        string_val: "276"
        string_val: "5701"
        string_val: "7961"
        string_val: "7924"
        string_val: "7733"
        string_val: "4399"
        string_val: "2891"
        string_val: "6723"
        string_val: "664"
        string_val: "7932"
        string_val: "4504"
        string_val: "2027"
        string_val: "4137"
        string_val: "3284"
        string_val: "8939"
        string_val: "2014"
        string_val: "2179"
        string_val: "8661"
        string_val: "2282"
        string_val: "9793"
        string_val: "9513"
        string_val: "9163"
        string_val: "4616"
        string_val: "8916"
        string_val: "5503"
        string_val: "7362"
        string_val: "6297"
        string_val: "3513"
        string_val: "3902"
        string_val: "5113"
        string_val: "797"
        string_val: "2691"
        string_val: "5500"
        string_val: "7408"
        string_val: "6642"
        string_val: "6219"
        string_val: "1538"
        string_val: "1967"
        string_val: "5075"
        string_val: "5649"
        string_val: "1285"
        string_val: "4121"
        string_val: "9254"
        string_val: "6554"
        string_val: "5798"
        string_val: "2199"
        string_val: "9735"
        string_val: "8995"
        string_val: "9187"
        string_val: "6612"
        string_val: "8756"
        string_val: "360"
        string_val: "2455"
        string_val: "5626"
        string_val: "3743"
        string_val: "3989"
        string_val: "2167"
        string_val: "4374"
        string_val: "1271"
        string_val: "5140"
        string_val: "6397"
        string_val: "4690"
        string_val: "1652"
        string_val: "2573"
        string_val: "6496"
        string_val: "2886"
        string_val: "7842"
        string_val: "730"
        string_val: "6749"
        string_val: "5569"
        string_val: "6029"
        string_val: "7854"
        string_val: "681"
        string_val: "1041"
        string_val: "8639"
        string_val: "2688"
        string_val: "3683"
        string_val: "6644"
        string_val: "1556"
        string_val: "3552"
        string_val: "2464"
        string_val: "977"
        string_val: "7468"
        string_val: "3841"
        string_val: "3872"
        string_val: "4030"
        string_val: "7762"
        string_val: "8926"
        string_val: "1434"
        string_val: "7578"
        string_val: "6531"
        string_val: "7585"
        string_val: "4832"
        string_val: "3460"
        string_val: "31"
        string_val: "4207"
        string_val: "8008"
        string_val: "8602"
        string_val: "4384"
        string_val: "304"
        string_val: "2837"
        string_val: "9402"
        string_val: "3534"
        string_val: "2270"
        string_val: "4239"
        string_val: "2416"
        string_val: "6664"
        string_val: "7693"
        string_val: "3281"
        string_val: "3765"
        string_val: "9286"
        string_val: "5346"
        string_val: "5951"
        string_val: "4307"
        string_val: "4367"
        string_val: "9025"
        string_val: "2060"
        string_val: "2506"
        string_val: "1593"
        string_val: "7803"
        string_val: "9643"
        string_val: "3980"
        string_val: "7029"
        string_val: "3416"
        string_val: "5811"
        string_val: "20"
        string_val: "1813"
        string_val: "1313"
        string_val: "7474"
        string_val: "9115"
        string_val: "2235"
        string_val: "3029"
        string_val: "9157"
        string_val: "3527"
        string_val: "372"
        string_val: "4836"
        string_val: "4870"
        string_val: "6812"
        string_val: "9372"
        string_val: "3998"
        string_val: "6367"
        string_val: "8066"
        string_val: "9553"
        string_val: "384"
        string_val: "3850"
        string_val: "188"
        string_val: "3759"
        string_val: "7653"
        string_val: "320"
        string_val: "4927"
        string_val: "6865"
        string_val: "8074"
        string_val: "498"
        string_val: "7001"
        string_val: "9395"
        string_val: "1309"
        string_val: "5752"
        string_val: "1838"
        string_val: "7041"
        string_val: "7586"
        string_val: "805"
        string_val: "7081"
        string_val: "3363"
        string_val: "6044"
        string_val: "6548"
        string_val: "2163"
        string_val: "4913"
        string_val: "3744"
        string_val: "9396"
        string_val: "9656"
        string_val: "5091"
        string_val: "2652"
        string_val: "2249"
        string_val: "5178"
        string_val: "4323"
        string_val: "9131"
        string_val: "8676"
        string_val: "9289"
        string_val: "4076"
        string_val: "2236"
        string_val: "1893"
        string_val: "5817"
        string_val: "9144"
        string_val: "6755"
        string_val: "8931"
        string_val: "8319"
        string_val: "1974"
        string_val: "8596"
        string_val: "1449"
        string_val: "4725"
        string_val: "2594"
        string_val: "2762"
        string_val: "218"
        string_val: "1483"
        string_val: "2536"
        string_val: "7995"
        string_val: "293"
        string_val: "2544"
        string_val: "3138"
        string_val: "3430"
        string_val: "3140"
        string_val: "9510"
        string_val: "4065"
        string_val: "3260"
        string_val: "1577"
        string_val: "3974"
        string_val: "1377"
        string_val: "7974"
        string_val: "5040"
        string_val: "5123"
        string_val: "4251"
        string_val: "1895"
        string_val: "7340"
        string_val: "4856"
        string_val: "2051"
        string_val: "5242"
        string_val: "8818"
        string_val: "8375"
        string_val: "1743"
        string_val: "2300"
        string_val: "4611"
        string_val: "3901"
        string_val: "1638"
        string_val: "8185"
        string_val: "598"
        string_val: "5787"
        string_val: "8822"
        string_val: "5753"
        string_val: "2908"
        string_val: "5640"
        string_val: "5057"
        string_val: "2070"
        string_val: "9005"
        string_val: "8930"
        string_val: "4561"
        string_val: "2746"
        string_val: "2040"
        string_val: "2585"
        string_val: "744"
        string_val: "3019"
        string_val: "5187"
        string_val: "5927"
        string_val: "9454"
        string_val: "4040"
        string_val: "2474"
        string_val: "2256"
        string_val: "1011"
        string_val: "1205"
        string_val: "6552"
        string_val: "3172"
        string_val: "462"
        string_val: "4483"
        string_val: "5417"
        string_val: "6314"
        string_val: "609"
        string_val: "3113"
        string_val: "1485"
        string_val: "7797"
        string_val: "7167"
        string_val: "2008"
        string_val: "6423"
        string_val: "4866"
        string_val: "2200"
        string_val: "8151"
        string_val: "4573"
        string_val: "6"
        string_val: "3662"
        string_val: "3876"
        string_val: "5110"
        string_val: "9989"
        string_val: "1126"
        string_val: "9234"
        string_val: "6177"
        string_val: "2808"
        string_val: "7426"
        string_val: "6941"
        string_val: "1647"
        string_val: "4114"
        string_val: "3194"
        string_val: "5513"
        string_val: "1426"
        string_val: "1554"
        string_val: "3915"
        string_val: "8022"
        string_val: "5434"
        string_val: "3680"
        string_val: "1580"
        string_val: "3333"
        string_val: "6277"
        string_val: "5366"
        string_val: "5605"
        string_val: "8474"
        string_val: "8784"
        string_val: "5209"
        string_val: "5120"
        string_val: "6739"
        string_val: "8472"
        string_val: "7786"
        string_val: "1138"
        string_val: "2436"
        string_val: "1429"
        string_val: "9288"
        string_val: "4181"
        string_val: "9091"
        string_val: "2237"
        string_val: "7559"
        string_val: "6553"
        string_val: "1565"
        string_val: "8178"
        string_val: "7188"
        string_val: "7866"
        string_val: "8718"
        string_val: "6211"
        string_val: "9419"
        string_val: "155"
        string_val: "5685"
        string_val: "4437"
        string_val: "5466"
        string_val: "9917"
        string_val: "6156"
        string_val: "3606"
        string_val: "7070"
        string_val: "23"
        string_val: "1248"
        string_val: "9854"
        string_val: "102"
        string_val: "9517"
        string_val: "5175"
        string_val: "8954"
        string_val: "7423"
        string_val: "2143"
        string_val: "9512"
        string_val: "8894"
        string_val: "8561"
        string_val: "6089"
        string_val: "1908"
        string_val: "8821"
        string_val: "5196"
        string_val: "5572"
        string_val: "9211"
        string_val: "3648"
        string_val: "8168"
        string_val: "1712"
        string_val: "6702"
        string_val: "8646"
        string_val: "5379"
        string_val: "7491"
        string_val: "2028"
        string_val: "6580"
        string_val: "4934"
        string_val: "6838"
        string_val: "8569"
        string_val: "5889"
        string_val: "2476"
        string_val: "1959"
        string_val: "4151"
        string_val: "3345"
        string_val: "2479"
        string_val: "2086"
        string_val: "662"
        string_val: "7710"
        string_val: "4045"
        string_val: "7771"
        string_val: "3960"
        string_val: "7977"
        string_val: "5876"
        string_val: "8987"
        string_val: "2091"
        string_val: "1484"
        string_val: "6960"
        string_val: "1464"
        string_val: "1420"
        string_val: "2740"
        string_val: "1659"
        string_val: "5593"
        string_val: "3506"
        string_val: "8067"
        string_val: "8045"
        string_val: "1232"
        string_val: "5797"
        string_val: "2590"
        string_val: "4105"
        string_val: "1350"
        string_val: "7521"
        string_val: "6342"
        string_val: "3300"
        string_val: "6892"
        string_val: "4848"
        string_val: "3204"
        string_val: "1946"
        string_val: "1519"
        string_val: "6924"
        string_val: "3206"
        string_val: "890"
        string_val: "1024"
        string_val: "5774"
        string_val: "1843"
        string_val: "8170"
        string_val: "3340"
        string_val: "1811"
        string_val: "6913"
        string_val: "58"
        string_val: "8344"
        string_val: "5286"
        string_val: "1756"
        string_val: "6746"
        string_val: "9308"
        string_val: "3335"
        string_val: "3347"
        string_val: "2735"
        string_val: "2484"
        string_val: "732"
        string_val: "7144"
        string_val: "7525"
        string_val: "1352"
        string_val: "7743"
        string_val: "8892"
        string_val: "3471"
        string_val: "1985"
        string_val: "3023"
        string_val: "2412"
        string_val: "8723"
        string_val: "2675"
        string_val: "1408"
        string_val: "7541"
        string_val: "7644"
        string_val: "5157"
        string_val: "8371"
        string_val: "9691"
        string_val: "2269"
        string_val: "8848"
        string_val: "5989"
        string_val: "1129"
        string_val: "8782"
        string_val: "257"
        string_val: "4583"
        string_val: "7967"
        string_val: "8167"
        string_val: "6911"
        string_val: "9936"
        string_val: "5786"
        string_val: "1572"
        string_val: "3241"
        string_val: "7238"
        string_val: "5190"
        string_val: "4555"
        string_val: "6751"
        string_val: "4097"
        string_val: "8483"
        string_val: "6150"
        string_val: "2694"
        string_val: "9699"
        string_val: "2699"
        string_val: "6533"
        string_val: "1748"
        string_val: "8922"
        string_val: "6333"
        string_val: "5447"
        string_val: "1035"
        string_val: "2095"
        string_val: "1610"
        string_val: "7181"
        string_val: "4005"
        string_val: "2131"
        string_val: "9566"
        string_val: "9200"
        string_val: "9502"
        string_val: "6741"
        string_val: "3007"
        string_val: "884"
        string_val: "7118"
        string_val: "7704"
        string_val: "5207"
        string_val: "8607"
        string_val: "4295"
        string_val: "8384"
        string_val: "988"
        string_val: "1868"
        string_val: "9492"
        string_val: "974"
        string_val: "9244"
        string_val: "3928"
        string_val: "4777"
        string_val: "3528"
        string_val: "6765"
        string_val: "9818"
        string_val: "2132"
        string_val: "5345"
        string_val: "6197"
        string_val: "7691"
        string_val: "4274"
        string_val: "8858"
        string_val: "7732"
        string_val: "9820"
        string_val: "4617"
        string_val: "9858"
        string_val: "4042"
        string_val: "7035"
        string_val: "6800"
        string_val: "2595"
        string_val: "4695"
        string_val: "1131"
        string_val: "5781"
        string_val: "6478"
        string_val: "8402"
        string_val: "1641"
        string_val: "9530"
        string_val: "782"
        string_val: "9789"
        string_val: "8158"
        string_val: "6542"
        string_val: "8429"
        string_val: "6530"
        string_val: "9349"
        string_val: "8503"
        string_val: "1368"
        string_val: "769"
        string_val: "5892"
        string_val: "4535"
        string_val: "9459"
        string_val: "770"
        string_val: "1533"
        string_val: "8055"
        string_val: "9824"
        string_val: "1119"
        string_val: "3810"
        string_val: "8672"
        string_val: "7744"
        string_val: "5668"
        string_val: "6446"
        string_val: "1300"
        string_val: "9075"
        string_val: "8475"
        string_val: "8733"
        string_val: "5653"
        string_val: "3961"
        string_val: "3949"
        string_val: "4397"
        string_val: "7278"
        string_val: "1494"
        string_val: "6245"
        string_val: "2215"
        string_val: "5133"
        string_val: "1788"
        string_val: "9593"
        string_val: "5099"
        string_val: "7317"
        string_val: "5713"
        string_val: "3211"
        string_val: "5829"
        string_val: "5420"
        string_val: "1922"
        string_val: "4850"
        string_val: "7766"
        string_val: "9365"
        string_val: "3984"
        string_val: "6369"
        string_val: "5749"
        string_val: "8455"
        string_val: "7783"
        string_val: "685"
        string_val: "6258"
        string_val: "7824"
        string_val: "938"
        string_val: "322"
        string_val: "8070"
        string_val: "1980"
        string_val: "5634"
        string_val: "2931"
        string_val: "4889"
        string_val: "3032"
        string_val: "8885"
        string_val: "5961"
        string_val: "3768"
        string_val: "5362"
        string_val: "3044"
        string_val: "4585"
        string_val: "3718"
        string_val: "6210"
        string_val: "4100"
        string_val: "7173"
        string_val: "9090"
        string_val: "8855"
        string_val: "4543"
        string_val: "2647"
        string_val: "439"
        string_val: "8404"
        string_val: "5215"
        string_val: "7946"
        string_val: "7882"
        string_val: "7343"
        string_val: "1317"
        string_val: "4117"
        string_val: "5567"
        string_val: "2898"
        string_val: "5213"
        string_val: "4008"
        string_val: "1174"
        string_val: "524"
        string_val: "7364"
        string_val: "3652"
        string_val: "3293"
        string_val: "7034"
        string_val: "3856"
        string_val: "7552"
        string_val: "9135"
        string_val: "3155"
        string_val: "6025"
        string_val: "8349"
        string_val: "3398"
        string_val: "6716"
        string_val: "5528"
        string_val: "7508"
        string_val: "8717"
        string_val: "3320"
        string_val: "603"
        string_val: "2861"
        string_val: "5299"
        string_val: "248"
        string_val: "4723"
        string_val: "6606"
        string_val: "8453"
        string_val: "9202"
        string_val: "7809"
        string_val: "6479"
        string_val: "2835"
        string_val: "6577"
        string_val: "9606"
        string_val: "7788"
        string_val: "6398"
        string_val: "104"
        string_val: "3024"
        string_val: "1151"
        string_val: "3189"
        string_val: "9368"
        string_val: "4698"
        string_val: "2873"
        string_val: "2870"
        string_val: "3731"
        string_val: "121"
        string_val: "4424"
        string_val: "563"
        string_val: "6681"
        string_val: "54"
        string_val: "5562"
        string_val: "9598"
        string_val: "4784"
        string_val: "3521"
        string_val: "7210"
        string_val: "952"
        string_val: "3568"
        string_val: "9259"
        string_val: "3432"
        string_val: "8581"
        string_val: "7847"
        string_val: "1366"
        string_val: "8408"
        string_val: "3177"
        string_val: "6062"
        string_val: "5789"
        string_val: "9239"
        string_val: "6914"
        string_val: "9188"
        string_val: "6709"
        string_val: "9672"
        string_val: "2388"
        string_val: "2354"
        string_val: "6168"
        string_val: "4062"
        string_val: "8539"
        string_val: "819"
        string_val: "8356"
        string_val: "3979"
        string_val: "2867"
        string_val: "244"
        string_val: "4046"
        string_val: "89"
        string_val: "2606"
        string_val: "1268"
        string_val: "1491"
        string_val: "1882"
        string_val: "6650"
        string_val: "7547"
        string_val: "7759"
        string_val: "8418"
        string_val: "514"
        string_val: "4759"
        string_val: "6458"
        string_val: "4993"
        string_val: "150"
        string_val: "8847"
        string_val: "6545"
        string_val: "8046"
        string_val: "5740"
        string_val: "4481"
        string_val: "5424"
        string_val: "8988"
        string_val: "4247"
        string_val: "6819"
        string_val: "2279"
        string_val: "3409"
        string_val: "7715"
        string_val: "3849"
        string_val: "5393"
        string_val: "2180"
        string_val: "6107"
        string_val: "9845"
        string_val: "6334"
        string_val: "4963"
        string_val: "4376"
        string_val: "6683"
        string_val: "74"
        string_val: "1877"
        string_val: "5735"
        string_val: "8373"
        string_val: "5573"
        string_val: "8043"
        string_val: "3180"
        string_val: "5663"
        string_val: "9355"
        string_val: "5063"
        string_val: "9468"
        string_val: "5546"
        string_val: "1183"
        string_val: "5775"
        string_val: "5584"
        string_val: "2102"
        string_val: "5823"
        string_val: "5083"
        string_val: "7831"
        string_val: "7332"
        string_val: "5587"
        string_val: "7223"
        string_val: "7935"
        string_val: "966"
        string_val: "337"
        string_val: "5365"
        string_val: "9731"
        string_val: "7540"
        string_val: "3341"
        string_val: "8540"
        string_val: "4900"
        string_val: "7823"
        string_val: "192"
        string_val: "1234"
        string_val: "8386"
        string_val: "4596"
        string_val: "1161"
        string_val: "2082"
        string_val: "4503"
        string_val: "2607"
        string_val: "9324"
        string_val: "4943"
        string_val: "7253"
        string_val: "7321"
        string_val: "7191"
        string_val: "8864"
        string_val: "1682"
        string_val: "663"
        string_val: "2789"
        string_val: "9085"
        string_val: "1462"
        string_val: "6998"
        string_val: "6757"
        string_val: "8667"
        string_val: "7272"
        string_val: "1969"
        string_val: "8257"
        string_val: "8491"
        string_val: "1777"
        string_val: "6341"
        string_val: "2821"
        string_val: "880"
        string_val: "418"
        string_val: "4196"
        string_val: "5119"
        string_val: "1018"
        string_val: "7981"
        string_val: "746"
        string_val: "1472"
        string_val: "7529"
        string_val: "7591"
        string_val: "5256"
        string_val: "2982"
        string_val: "4532"
        string_val: "2679"
        string_val: "7580"
        string_val: "5222"
        string_val: "9008"
        string_val: "3249"
        string_val: "1314"
        string_val: "2295"
        string_val: "6471"
        string_val: "555"
        string_val: "4248"
        string_val: "1277"
        string_val: "7056"
        string_val: "8093"
        string_val: "7351"
        string_val: "4024"
        string_val: "7778"
        string_val: "4358"
        string_val: "806"
        string_val: "8625"
        string_val: "7368"
        string_val: "7228"
        string_val: "4940"
        string_val: "6350"
        string_val: "8301"
        string_val: "229"
        string_val: "7411"
        string_val: "8065"
        string_val: "7996"
        string_val: "1172"
        string_val: "878"
        string_val: "9079"
        string_val: "368"
        string_val: "421"
        string_val: "8350"
        string_val: "537"
        string_val: "7904"
        string_val: "9759"
        string_val: "7166"
        string_val: "3698"
        string_val: "167"
        string_val: "7057"
        string_val: "8271"
        string_val: "1808"
        string_val: "2681"
        string_val: "1473"
        string_val: "7098"
        string_val: "9830"
        string_val: "6963"
        string_val: "2054"
        string_val: "1140"
        string_val: "6487"
        string_val: "442"
        string_val: "5246"
        string_val: "9243"
        string_val: "8810"
        string_val: "3716"
        string_val: "5432"
        string_val: "827"
        string_val: "8895"
        string_val: "4402"
        string_val: "9129"
        string_val: "4395"
        string_val: "2846"
        string_val: "4571"
        string_val: "8286"
        string_val: "2400"
        string_val: "5877"
        string_val: "5866"
        string_val: "4107"
        string_val: "159"
        string_val: "6056"
        string_val: "8832"
        string_val: "1154"
        string_val: "7176"
        string_val: "583"
        string_val: "7972"
        string_val: "8261"
        string_val: "2556"
        string_val: "3754"
        string_val: "2904"
        string_val: "9356"
        string_val: "371"
        string_val: "4762"
        string_val: "4222"
        string_val: "3272"
        string_val: "6225"
        string_val: "7313"
        string_val: "8888"
        string_val: "6006"
        string_val: "204"
        string_val: "871"
        string_val: "8109"
        string_val: "1207"
        string_val: "9752"
        string_val: "6567"
        string_val: "2332"
        string_val: "4541"
        string_val: "6340"
        string_val: "8564"
        string_val: "3002"
        string_val: "3263"
        string_val: "5032"
        string_val: "9229"
        string_val: "1839"
        string_val: "9876"
        string_val: "1909"
        string_val: "1294"
        string_val: "4091"
        string_val: "4536"
        string_val: "9345"
        string_val: "1344"
        string_val: "2985"
        string_val: "4438"
        string_val: "4869"
        string_val: "887"
        string_val: "7687"
        string_val: "8127"
        string_val: "1600"
        string_val: "1367"
        string_val: "9381"
        string_val: "9970"
        string_val: "5984"
        string_val: "8643"
        string_val: "1621"
        string_val: "7865"
        string_val: "15"
        string_val: "5613"
        string_val: "3991"
        string_val: "5581"
        string_val: "490"
        string_val: "8337"
        string_val: "8353"
        string_val: "5592"
        string_val: "1188"
        string_val: "6923"
        string_val: "9411"
        string_val: "6826"
        string_val: "7221"
        string_val: "66"
        string_val: "1251"
        string_val: "265"
        string_val: "9618"
        string_val: "4085"
        string_val: "7980"
        string_val: "495"
        string_val: "8440"
        string_val: "292"
        string_val: "474"
        string_val: "7912"
        string_val: "5783"
        string_val: "2449"
        string_val: "521"
        string_val: "3855"
        string_val: "334"
        string_val: "4572"
        string_val: "3468"
        string_val: "1296"
        string_val: "5861"
        string_val: "5807"
        string_val: "7257"
        string_val: "2398"
        string_val: "7120"
        string_val: "3882"
        string_val: "7237"
        string_val: "9861"
        string_val: "2122"
        string_val: "4084"
        string_val: "6272"
        string_val: "5248"
        string_val: "9768"
        string_val: "5442"
        string_val: "5453"
        string_val: "5376"
        string_val: "8663"
        string_val: "5185"
        string_val: "190"
        string_val: "1489"
        string_val: "2910"
        string_val: "5144"
        string_val: "5760"
        string_val: "5309"
        string_val: "6438"
        string_val: "457"
        string_val: "5570"
        string_val: "2975"
        string_val: "7153"
        string_val: "1798"
        string_val: "6360"
        string_val: "4922"
        string_val: "6695"
        string_val: "4439"
        string_val: "7395"
        string_val: "9719"
        string_val: "6196"
        string_val: "9109"
        string_val: "7410"
        string_val: "1149"
        string_val: "854"
        string_val: "7043"
        string_val: "2197"
        string_val: "8715"
        string_val: "8163"
        string_val: "4640"
        string_val: "7801"
        string_val: "766"
        string_val: "8389"
        string_val: "426"
        string_val: "976"
        string_val: "76"
        string_val: "5776"
        string_val: "4112"
        string_val: "2786"
        string_val: "6722"
        string_val: "7331"
        string_val: "2222"
        string_val: "7959"
        string_val: "6246"
        string_val: "8439"
        string_val: "7490"
        string_val: "9545"
        string_val: "9651"
        string_val: "1102"
        string_val: "6248"
        string_val: "9379"
        string_val: "8417"
        string_val: "7942"
        string_val: "6249"
        string_val: "7603"
        string_val: "8249"
        string_val: "644"
        string_val: "6879"
        string_val: "7714"
        string_val: "10"
        string_val: "4582"
        string_val: "2983"
        string_val: "9910"
        string_val: "3008"
        string_val: "8434"
        string_val: "4875"
        string_val: "8123"
        string_val: "1446"
        string_val: "9511"
        string_val: "32"
        string_val: "497"
        string_val: "9871"
        string_val: "253"
        string_val: "984"
        string_val: "4752"
        string_val: "5259"
        string_val: "358"
        string_val: "8480"
        string_val: "3190"
        string_val: "4805"
        string_val: "1579"
        string_val: "5540"
        string_val: "4897"
        string_val: "6814"
        string_val: "8710"
        string_val: "4548"
        string_val: "9062"
        string_val: "5778"
        string_val: "4276"
        string_val: "903"
        string_val: "2640"
        string_val: "704"
        string_val: "1012"
        string_val: "9441"
        string_val: "1050"
        string_val: "4250"
        string_val: "925"
        string_val: "940"
        string_val: "5326"
        string_val: "6009"
        string_val: "5323"
        string_val: "5332"
        string_val: "2968"
        string_val: "44"
        string_val: "7004"
        string_val: "6285"
        string_val: "8854"
        string_val: "186"
        string_val: "4645"
        string_val: "2202"
        string_val: "5459"
        string_val: "1436"
        string_val: "5282"
        string_val: "6023"
        string_val: "1379"
        string_val: "8241"
        string_val: "3080"
        string_val: "8058"
        string_val: "7889"
        string_val: "317"
        string_val: "1551"
        string_val: "8766"
        string_val: "8941"
        string_val: "3828"
        string_val: "5425"
        string_val: "2204"
        string_val: "9153"
        string_val: "1637"
        string_val: "1503"
        string_val: "4658"
        string_val: "4873"
        string_val: "891"
        string_val: "9212"
        string_val: "3100"
        string_val: "5142"
        string_val: "6300"
        string_val: "8918"
        string_val: "4205"
        string_val: "9273"
        string_val: "530"
        string_val: "4411"
        string_val: "4138"
        string_val: "7694"
        string_val: "4404"
        string_val: "8790"
        string_val: "6643"
        string_val: "8303"
        string_val: "9979"
        string_val: "6707"
        string_val: "382"
        string_val: "9169"
        string_val: "9937"
        string_val: "3802"
        string_val: "809"
        string_val: "6791"
        string_val: "1176"
        string_val: "1404"
        string_val: "6544"
        string_val: "7349"
        string_val: "5400"
        string_val: "6645"
        string_val: "3055"
        string_val: "2784"
        string_val: "9872"
        string_val: "7195"
        string_val: "491"
        string_val: "1796"
        string_val: "7876"
        string_val: "4825"
        string_val: "5869"
        string_val: "5300"
        string_val: "6760"
        string_val: "128"
        string_val: "9173"
        string_val: "2547"
        string_val: "3619"
        string_val: "2845"
        string_val: "9086"
        string_val: "9803"
        string_val: "4372"
        string_val: "8574"
        string_val: "5150"
        string_val: "5487"
        string_val: "8466"
        string_val: "978"
        string_val: "4083"
        string_val: "6165"
        string_val: "4578"
        string_val: "2499"
        string_val: "9423"
        string_val: "9607"
        string_val: "3752"
        string_val: "8437"
        string_val: "2795"
        string_val: "4884"
        string_val: "970"
        string_val: "4818"
        string_val: "6905"
        string_val: "1778"
        string_val: "7171"
        string_val: "1825"
        string_val: "4431"
        string_val: "3646"
        string_val: "5520"
        string_val: "391"
        string_val: "506"
        string_val: "791"
        string_val: "298"
        string_val: "5295"
        string_val: "325"
        string_val: "5272"
        string_val: "3639"
        string_val: "9866"
        string_val: "5028"
        string_val: "3205"
        string_val: "3581"
        string_val: "3641"
        string_val: "9645"
        string_val: "8277"
        string_val: "1949"
        string_val: "1208"
        string_val: "2260"
        string_val: "9032"
        string_val: "8601"
        string_val: "5906"
        string_val: "1849"
        string_val: "2690"
        string_val: "6602"
        string_val: "8785"
        string_val: "267"
        string_val: "9819"
        string_val: "3713"
        string_val: "9406"
        string_val: "5462"
        string_val: "7467"
        string_val: "367"
        string_val: "2108"
        string_val: "9833"
        string_val: "2660"
        string_val: "8730"
        string_val: "5161"
        string_val: "9232"
        string_val: "3285"
        string_val: "1586"
        string_val: "2889"
        string_val: "2969"
        string_val: "5258"
        string_val: "6189"
        string_val: "5615"
        string_val: "5071"
        string_val: "6036"
        string_val: "2851"
        string_val: "7804"
        string_val: "1932"
        string_val: "1193"
        string_val: "5507"
        string_val: "1953"
        string_val: "2144"
        string_val: "4597"
        string_val: "6266"
        string_val: "3723"
        string_val: "7051"
        string_val: "396"
        string_val: "3584"
        string_val: "7533"
        string_val: "129"
        string_val: "6236"
        string_val: "4661"
        string_val: "7993"
        string_val: "1441"
        string_val: "6592"
        string_val: "865"
        string_val: "8738"
        string_val: "3858"
        string_val: "9318"
        string_val: "820"
        string_val: "2772"
        string_val: "7582"
        string_val: "714"
        string_val: "4303"
        string_val: "5968"
        string_val: "6851"
        string_val: "7604"
        string_val: "8840"
        string_val: "5407"
        string_val: "5458"
        string_val: "1692"
        string_val: "8240"
        string_val: "1480"
        string_val: "8211"
        string_val: "9133"
        string_val: "5033"
        string_val: "4215"
        string_val: "4147"
        string_val: "7756"
        string_val: "4776"
        string_val: "452"
        string_val: "6697"
        string_val: "8053"
        string_val: "6429"
        string_val: "9805"
        string_val: "4735"
        string_val: "9231"
        string_val: "3171"
        string_val: "5491"
        string_val: "7160"
        string_val: "994"
        string_val: "6375"
        string_val: "6855"
        string_val: "7807"
        string_val: "7764"
        string_val: "4539"
        string_val: "7776"
        string_val: "2972"
        string_val: "5261"
        string_val: "8030"
        string_val: "7306"
        string_val: "101"
        string_val: "3488"
        string_val: "135"
        string_val: "3945"
        string_val: "1256"
        string_val: "7266"
        string_val: "6099"
        string_val: "2168"
        string_val: "3474"
        string_val: "9323"
        string_val: "2952"
        string_val: "1732"
        string_val: "3655"
        string_val: "6822"
        string_val: "618"
        string_val: "2980"
        string_val: "8124"
        string_val: "5174"
        string_val: "1717"
        string_val: "1896"
        string_val: "8020"
        string_val: "3120"
        string_val: "5446"
        string_val: "3223"
        string_val: "2583"
        string_val: "611"
        string_val: "8444"
        string_val: "8414"
        string_val: "2736"
        string_val: "8859"
        string_val: "299"
        string_val: "2366"
        string_val: "12"
        string_val: "30"
        string_val: "8628"
        string_val: "9634"
        string_val: "5849"
        string_val: "1697"
        string_val: "2524"
        string_val: "1535"
        string_val: "523"
        string_val: "2926"
        string_val: "7737"
        string_val: "5881"
        string_val: "8861"
        string_val: "4345"
        string_val: "954"
        string_val: "2327"
        string_val: "6450"
        string_val: "9180"
        string_val: "1499"
        string_val: "3"
        string_val: "1184"
        string_val: "2932"
        string_val: "1658"
        string_val: "8798"
        string_val: "5401"
        string_val: "935"
        string_val: "6767"
        string_val: "5181"
        string_val: "5467"
        string_val: "6432"
        string_val: "340"
        string_val: "4002"
        string_val: "433"
        string_val: "9412"
        string_val: "1897"
        string_val: "6772"
        string_val: "2776"
        string_val: "7403"
        string_val: "6431"
        string_val: "1399"
        string_val: "8928"
        string_val: "939"
        string_val: "3232"
        string_val: "2058"
        string_val: "7039"
        string_val: "845"
        string_val: "1425"
        string_val: "7825"
        string_val: "5389"
        string_val: "9846"
        string_val: "7844"
        string_val: "4037"
        string_val: "1418"
        string_val: "9371"
        string_val: "540"
        string_val: "7357"
        string_val: "9647"
        string_val: "6571"
        string_val: "8495"
        string_val: "1226"
        string_val: "908"
        string_val: "7003"
        string_val: "1833"
        string_val: "4886"
        string_val: "7443"
        string_val: "2373"
        string_val: "2801"
        string_val: "3932"
        string_val: "9290"
        string_val: "8094"
        string_val: "5916"
        string_val: "9258"
        string_val: "2378"
        string_val: "5547"
        string_val: "1396"
        string_val: "381"
        string_val: "4221"
        string_val: "7418"
        string_val: "7945"
        string_val: "1289"
        string_val: "1553"
        string_val: "3792"
        string_val: "9222"
        string_val: "4238"
        string_val: "1740"
        string_val: "8254"
        string_val: "1852"
        string_val: "6786"
        string_val: "3544"
        string_val: "558"
        string_val: "7394"
        string_val: "3124"
        string_val: "7528"
        string_val: "4794"
        string_val: "4670"
        string_val: "6373"
        string_val: "5205"
        string_val: "5496"
        string_val: "8229"
        string_val: "6633"
        string_val: "6881"
        string_val: "7505"
        string_val: "8929"
        string_val: "6020"
        string_val: "6673"
        string_val: "6660"
        string_val: "8649"
        string_val: "6488"
        string_val: "6301"
        string_val: "4798"
        string_val: "88"
        string_val: "2383"
        string_val: "2015"
        string_val: "9016"
        string_val: "9524"
        string_val: "2439"
        string_val: "9664"
        string_val: "5232"
        string_val: "2554"
        string_val: "3237"
        string_val: "5409"
        string_val: "776"
        string_val: "1250"
        string_val: "6513"
        string_val: "3854"
        string_val: "4916"
        string_val: "7151"
        string_val: "9983"
        string_val: "6055"
        string_val: "6357"
        string_val: "8011"
        string_val: "8650"
        string_val: "34"
        string_val: "7438"
        string_val: "2407"
        string_val: "2832"
        string_val: "1385"
        string_val: "1515"
        string_val: "3371"
        string_val: "1672"
        string_val: "6843"
        string_val: "1113"
        string_val: "6343"
        string_val: "2641"
        string_val: "2615"
        string_val: "2120"
        string_val: "168"
        string_val: "8316"
        string_val: "2896"
        string_val: "5294"
        string_val: "7957"
        string_val: "8252"
        string_val: "6075"
        string_val: "9870"
        string_val: "6388"
        string_val: "3740"
        string_val: "2745"
        string_val: "1654"
        string_val: "9951"
        string_val: "6178"
        string_val: "8976"
        string_val: "738"
        string_val: "345"
        string_val: "3201"
        string_val: "8773"
        string_val: "8985"
        string_val: "4559"
        string_val: "3208"
        string_val: "4506"
        string_val: "8027"
        string_val: "5627"
        string_val: "2372"
        string_val: "3688"
        string_val: "2755"
        string_val: "3833"
        string_val: "7486"
        string_val: "9815"
        string_val: "4294"
        string_val: "4459"
        string_val: "8913"
        string_val: "1677"
        string_val: "2111"
        string_val: "2154"
        string_val: "5029"
        string_val: "6990"
        string_val: "8306"
        string_val: "4020"
        string_val: "5535"
        string_val: "2123"
        string_val: "5838"
        string_val: "4206"
        string_val: "328"
        string_val: "4774"
        string_val: "3352"
        string_val: "3535"
        string_val: "1040"
        string_val: "467"
        string_val: "4675"
        string_val: "9015"
        string_val: "2816"
        string_val: "5864"
        string_val: "9932"
        string_val: "4477"
        string_val: "263"
        string_val: "2139"
        string_val: "8570"
        string_val: "7662"
        string_val: "7700"
        string_val: "1244"
        string_val: "5670"
        string_val: "4055"
        string_val: "9842"
        string_val: "9034"
        string_val: "2334"
        string_val: "8323"
        string_val: "374"
        string_val: "7514"
        string_val: "1509"
        string_val: "677"
        string_val: "2007"
        string_val: "5901"
        string_val: "3210"
        string_val: "9031"
        string_val: "4540"
        string_val: "5056"
        string_val: "7093"
        string_val: "2101"
        string_val: "5609"
        string_val: "4842"
        string_val: "6082"
        string_val: "2549"
        string_val: "1885"
        string_val: "7509"
        string_val: "6146"
        string_val: "1340"
        string_val: "8427"
        string_val: "7692"
        string_val: "694"
        string_val: "3668"
        string_val: "3137"
        string_val: "1362"
        string_val: "1982"
        string_val: "9948"
        string_val: "364"
        string_val: "8322"
        string_val: "8140"
        string_val: "2825"
        string_val: "3612"
        string_val: "1775"
        string_val: "2487"
        string_val: "8056"
        string_val: "7114"
        string_val: "8775"
        string_val: "5262"
        string_val: "6069"
        string_val: "7698"
        string_val: "8809"
        string_val: "3298"
        string_val: "5331"
        string_val: "2637"
        string_val: "6376"
        string_val: "3271"
        string_val: "9685"
        string_val: "6329"
        string_val: "9881"
        string_val: "5725"
        string_val: "4"
        string_val: "6968"
        string_val: "8714"
        string_val: "3494"
        string_val: "9550"
        string_val: "6387"
        string_val: "2423"
        string_val: "9745"
        string_val: "4072"
        string_val: "8018"
        string_val: "6463"
        string_val: "2883"
        string_val: "7895"
        string_val: "620"
        string_val: "9216"
        string_val: "7324"
        string_val: "918"
        string_val: "5902"
        string_val: "2807"
        string_val: "8138"
        string_val: "9797"
        string_val: "517"
        string_val: "3782"
        string_val: "2862"
        string_val: "3557"
        string_val: "8312"
        string_val: "9443"
        string_val: "5104"
        string_val: "4410"
        string_val: "9563"
        string_val: "4629"
        string_val: "5937"
        string_val: "4750"
        string_val: "9491"
        string_val: "7843"
        string_val: "697"
        string_val: "8872"
        string_val: "1710"
        string_val: "4909"
        string_val: "1288"
        string_val: "4693"
        string_val: "7016"
        string_val: "4847"
        string_val: "1854"
        string_val: "4918"
        string_val: "3077"
        string_val: "6682"
        string_val: "661"
        string_val: "2724"
        string_val: "8420"
        string_val: "3125"
        string_val: "3255"
        string_val: "8899"
        string_val: "5231"
        string_val: "2743"
        string_val: "7632"
        string_val: "6071"
        string_val: "5724"
        string_val: "9529"
        string_val: "4082"
        string_val: "5686"
        string_val: "9640"
        string_val: "9072"
        string_val: "3575"
        string_val: "3322"
        string_val: "6118"
        string_val: "8035"
        string_val: "5903"
        string_val: "543"
        string_val: "7108"
        string_val: "9125"
        string_val: "673"
        string_val: "3735"
        string_val: "7227"
        string_val: "9973"
        string_val: "7429"
        string_val: "5210"
        string_val: "1002"
        string_val: "8401"
        string_val: "7548"
        string_val: "9340"
        string_val: "2186"
        string_val: "6061"
        string_val: "3975"
        string_val: "2196"
        string_val: "4625"
        string_val: "223"
        string_val: "9710"
        string_val: "9378"
        string_val: "7283"
        string_val: "1036"
        string_val: "9482"
        string_val: "3890"
        string_val: "580"
        string_val: "605"
        string_val: "4381"
        string_val: "2664"
        string_val: "9053"
        string_val: "6657"
        string_val: "5414"
        string_val: "5239"
        string_val: "3463"
        string_val: "3307"
        string_val: "6490"
        string_val: "3597"
        string_val: "2976"
        string_val: "8159"
        string_val: "2335"
        string_val: "6555"
        string_val: "7551"
        string_val: "2719"
        string_val: "5677"
        string_val: "8587"
        string_val: "9671"
        string_val: "2064"
        string_val: "6383"
        string_val: "3679"
        string_val: "1707"
        string_val: "9955"
        string_val: "1591"
        string_val: "6306"
        string_val: "9539"
        string_val: "9667"
        string_val: "5131"
        string_val: "823"
        string_val: "1067"
        string_val: "4544"
        string_val: "3301"
        string_val: "5160"
        string_val: "5521"
        string_val: "5337"
        string_val: "3159"
        string_val: "7431"
        string_val: "1108"
        string_val: "5274"
        string_val: "1614"
        string_val: "84"
        string_val: "7926"
        string_val: "1020"
        string_val: "6738"
        string_val: "3800"
        string_val: "1892"
        string_val: "8774"
        string_val: "1435"
        string_val: "7572"
        string_val: "9250"
        string_val: "1109"
        string_val: "6185"
        string_val: "4672"
        string_val: "106"
        string_val: "8608"
        string_val: "9408"
        string_val: "1029"
        string_val: "9828"
        string_val: "8571"
        string_val: "8128"
        string_val: "6053"
        string_val: "6141"
        string_val: "9352"
        string_val: "4942"
        string_val: "8145"
        string_val: "7124"
        string_val: "3234"
        string_val: "8396"
        string_val: "9042"
        string_val: "7419"
        string_val: "3593"
        string_val: "3594"
        string_val: "5830"
        string_val: "9770"
        string_val: "5933"
        string_val: "3087"
        string_val: "6385"
        string_val: "8668"
        string_val: "1567"
        string_val: "1568"
        string_val: "388"
        string_val: "6019"
        string_val: "2331"
        string_val: "4997"
        string_val: "9816"
        string_val: "5656"
        string_val: "3034"
        string_val: "9739"
        string_val: "6527"
        string_val: "3248"
        string_val: "7214"
        string_val: "3070"
        string_val: "913"
        string_val: "4210"
        string_val: "8904"
        string_val: "1448"
        string_val: "3074"
        string_val: "3817"
        string_val: "5978"
        string_val: "4797"
        string_val: "6635"
        string_val: "1878"
        string_val: "2874"
        string_val: "8963"
        string_val: "2353"
        string_val: "3045"
        string_val: "2738"
        string_val: "152"
        string_val: "742"
        string_val: "4258"
        string_val: "879"
        string_val: "2137"
        string_val: "2299"
        string_val: "2274"
        string_val: "5936"
        string_val: "3673"
        string_val: "6221"
        string_val: "1409"
        string_val: "7740"
        string_val: "202"
        string_val: "3738"
        string_val: "6603"
        string_val: "9089"
        string_val: "1979"
        string_val: "8180"
        string_val: "5887"
        string_val: "8293"
        string_val: "1733"
        string_val: "5816"
        string_val: "3545"
        string_val: "1213"
        string_val: "4771"
        string_val: "9444"
        string_val: "8961"
        string_val: "6402"
        string_val: "4569"
        string_val: "8223"
        string_val: "370"
        string_val: "3192"
        string_val: "9741"
        string_val: "9215"
        string_val: "6355"
        string_val: "4312"
        string_val: "1603"
        string_val: "3309"
        string_val: "3483"
        string_val: "6669"
        string_val: "1417"
        string_val: "7555"
        string_val: "2610"
        string_val: "9980"
        string_val: "5777"
        string_val: "7150"
        string_val: "8052"
        string_val: "4088"
        string_val: "1716"
        string_val: "9756"
        string_val: "7557"
        string_val: "1469"
        string_val: "6050"
        string_val: "3747"
        string_val: "877"
        string_val: "793"
        string_val: "790"
        string_val: "1421"
        string_val: "9626"
        string_val: "8991"
        string_val: "7606"
        string_val: "1822"
        string_val: "1414"
        string_val: "176"
        string_val: "5598"
        string_val: "7874"
        string_val: "9099"
        string_val: "1954"
        string_val: "8664"
        string_val: "7456"
        string_val: "2203"
        string_val: "5955"
        string_val: "7805"
        string_val: "5659"
        string_val: "3529"
        string_val: "1988"
        string_val: "5236"
        string_val: "7724"
        string_val: "4179"
        string_val: "9560"
        string_val: "7479"
        string_val: "4838"
        string_val: "9715"
        string_val: "239"
        string_val: "5244"
        string_val: "7328"
        string_val: "2403"
        string_val: "1630"
        string_val: "2498"
        string_val: "2828"
        string_val: "4130"
        string_val: "234"
        string_val: "1320"
        string_val: "7590"
        string_val: "7316"
        string_val: "8001"
        string_val: "6453"
        string_val: "8231"
        string_val: "2732"
        string_val: "2815"
        string_val: "236"
        string_val: "9882"
        string_val: "9967"
        string_val: "8800"
        string_val: "2803"
        string_val: "7168"
        string_val: "7911"
        string_val: "42"
        string_val: "7900"
        string_val: "7170"
        string_val: "724"
        string_val: "9750"
        string_val: "4781"
        string_val: "1708"
        string_val: "4268"
        string_val: "1412"
        string_val: "2178"
        string_val: "6492"
        string_val: "3626"
        string_val: "7242"
        string_val: "5228"
        string_val: "7072"
        string_val: "7033"
        string_val: "9240"
        string_val: "1587"
        string_val: "8086"
        string_val: "5405"
        string_val: "1071"
        string_val: "9582"
        string_val: "7466"
        string_val: "7137"
        string_val: "6116"
        string_val: "3537"
        string_val: "1562"
        string_val: "7633"
        string_val: "8657"
        string_val: "6512"
        string_val: "4291"
        string_val: "8449"
        string_val: "1303"
        string_val: "2226"
        string_val: "5899"
        string_val: "8000"
        string_val: "7026"
        string_val: "8149"
        string_val: "6965"
        string_val: "1929"
        string_val: "2850"
        string_val: "1941"
        string_val: "9541"
        string_val: "9094"
        string_val: "2907"
        string_val: "9801"
        string_val: "8160"
        string_val: "8701"
        string_val: "3518"
        string_val: "3722"
        string_val: "2100"
        string_val: "7112"
        string_val: "24"
        string_val: "5669"
        string_val: "4427"
        string_val: "6267"
        string_val: "4512"
        string_val: "7566"
        string_val: "6083"
        string_val: "8364"
        string_val: "3613"
        string_val: "6147"
        string_val: "2727"
        string_val: "4519"
        string_val: "81"
        string_val: "1384"
        string_val: "9462"
        string_val: "1475"
        string_val: "3669"
        string_val: "1971"
        string_val: "4937"
        string_val: "6497"
        string_val: "3231"
        string_val: "6538"
        string_val: "6904"
        string_val: "6858"
        string_val: "2820"
        string_val: "3725"
        string_val: "8762"
        string_val: "1173"
        string_val: "9659"
        string_val: "2505"
        string_val: "5870"
        string_val: "5457"
        string_val: "3438"
        string_val: "5628"
        string_val: "1150"
        string_val: "6730"
        string_val: "8772"
        string_val: "571"
        string_val: "137"
        string_val: "9060"
        string_val: "1569"
        string_val: "4678"
        string_val: "4778"
        string_val: "4696"
        string_val: "5351"
        string_val: "2323"
        string_val: "5380"
        string_val: "3047"
        string_val: "8692"
        string_val: "6212"
        string_val: "7607"
        string_val: "6762"
        string_val: "2283"
        string_val: "4623"
        string_val: "5673"
        string_val: "5445"
        string_val: "9346"
        string_val: "4039"
        string_val: "9690"
        string_val: "4860"
        string_val: "6753"
        string_val: "9470"
        string_val: "5223"
        string_val: "607"
        string_val: "5934"
        string_val: "2183"
        string_val: "5750"
        string_val: "1963"
        string_val: "5631"
        string_val: "7157"
        string_val: "5696"
        string_val: "6137"
        string_val: "7535"
        string_val: "7542"
        string_val: "2454"
        string_val: "420"
        string_val: "2865"
        string_val: "9293"
        string_val: "9151"
        string_val: "569"
        string_val: "6949"
        string_val: "7352"
        string_val: "5291"
        string_val: "3397"
        string_val: "9711"
        string_val: "1292"
        string_val: "2252"
        string_val: "3523"
        string_val: "2946"
        string_val: "1613"
        string_val: "3511"
        string_val: "8984"
        string_val: "383"
        string_val: "8106"
        string_val: "6183"
        string_val: "2415"
        string_val: "934"
        string_val: "4811"
        string_val: "4074"
        string_val: "4767"
        string_val: "7267"
        string_val: "2989"
        string_val: "8760"
        string_val: "8786"
        string_val: "4768"
        string_val: "5148"
        string_val: "9183"
        string_val: "1671"
        string_val: "7178"
        string_val: "1840"
        string_val: "1168"
        string_val: "4552"
        string_val: "3069"
        string_val: "8996"
        string_val: "707"
        string_val: "4888"
        string_val: "4296"
        string_val: "617"
        string_val: "8505"
        string_val: "8426"
        string_val: "3066"
        string_val: "7919"
        string_val: "4649"
        string_val: "3645"
        string_val: "9751"
        string_val: "4129"
        string_val: "9561"
        string_val: "7183"
        string_val: "1479"
        string_val: "2109"
        string_val: "6523"
        string_val: "9912"
        string_val: "6474"
        string_val: "2069"
        string_val: "4026"
        string_val: "8740"
        string_val: "7827"
        string_val: "4613"
        string_val: "3516"
        string_val: "8400"
        string_val: "2322"
        string_val: "582"
        string_val: "8951"
        string_val: "5153"
        string_val: "1667"
        string_val: "1516"
        string_val: "4990"
        string_val: "397"
        string_val: "5552"
        string_val: "1453"
        string_val: "4469"
        string_val: "2413"
        string_val: "9174"
        string_val: "4379"
        string_val: "541"
        string_val: "7251"
        string_val: "1135"
        string_val: "9978"
        string_val: "3536"
        string_val: "5891"
        string_val: "3906"
        string_val: "4348"
        string_val: "889"
        string_val: "3927"
        string_val: "2017"
        string_val: "2497"
        string_val: "3779"
        string_val: "7652"
        string_val: "7513"
        string_val: "8765"
        string_val: "5234"
        string_val: "2995"
        string_val: "2350"
        string_val: "466"
        string_val: "5758"
        string_val: "1299"
        string_val: "9717"
        string_val: "9256"
        string_val: "4109"
        string_val: "2092"
        string_val: "3628"
        string_val: "1057"
        string_val: "4577"
        string_val: "3202"
        string_val: "640"
        string_val: "6925"
        string_val: "2333"
        string_val: "8720"
        string_val: "9727"
        string_val: "2678"
        string_val: "550"
        string_val: "1167"
        string_val: "796"
        string_val: "2833"
        string_val: "3015"
        string_val: "5391"
        string_val: "6399"
        string_val: "8270"
        string_val: "6595"
        string_val: "1445"
        string_val: "5591"
        string_val: "9495"
        string_val: "8101"
        string_val: "9466"
        string_val: "6718"
        string_val: "2758"
        string_val: "6525"
        string_val: "5791"
        string_val: "4606"
        string_val: "5151"
        string_val: "8073"
        string_val: "5197"
        string_val: "9990"
        string_val: "649"
        string_val: "8678"
        string_val: "2960"
        string_val: "7852"
        string_val: "9435"
        string_val: "1373"
        string_val: "9020"
        string_val: "9189"
        string_val: "3191"
        string_val: "3027"
        string_val: "706"
        string_val: "7134"
        string_val: "6335"
        string_val: "8287"
        string_val: "6945"
        string_val: "6482"
        string_val: "1806"
        string_val: "3319"
        string_val: "6940"
        string_val: "4525"
        string_val: "8137"
        string_val: "3873"
        string_val: "7442"
        string_val: "7327"
        string_val: "7136"
        string_val: "4075"
        string_val: "1325"
        string_val: "6780"
        string_val: "7305"
        string_val: "7012"
        string_val: "6997"
        string_val: "3938"
        string_val: "5287"
        string_val: "7478"
        string_val: "3417"
        string_val: "9500"
        string_val: "7185"
        string_val: "3745"
        string_val: "5883"
        string_val: "7274"
        string_val: "2301"
        string_val: "527"
        string_val: "6556"
        string_val: "222"
        string_val: "352"
        string_val: "1083"
        string_val: "9663"
        string_val: "1836"
        string_val: "3372"
        string_val: "2304"
        string_val: "4747"
        string_val: "5855"
        string_val: "7888"
        string_val: "949"
        string_val: "8655"
        string_val: "5087"
        string_val: "2739"
        string_val: "6874"
        string_val: "386"
        string_val: "5732"
        string_val: "8392"
        string_val: "9"
        string_val: "5089"
        string_val: "9496"
        string_val: "602"
        string_val: "8501"
        string_val: "187"
        string_val: "9994"
        string_val: "1742"
        string_val: "599"
        string_val: "5203"
        string_val: "6961"
        string_val: "6927"
        string_val: "8771"
        string_val: "7232"
        string_val: "1115"
        string_val: "5544"
        string_val: "314"
        string_val: "2213"
        string_val: "8856"
        string_val: "9049"
        string_val: "6656"
        string_val: "2427"
        string_val: "4190"
        string_val: "2022"
        string_val: "4545"
        string_val: "549"
        string_val: "1054"
        string_val: "8684"
        string_val: "4827"
        string_val: "6983"
        string_val: "5711"
        string_val: "4192"
        string_val: "9217"
        string_val: "4000"
        string_val: "5444"
        string_val: "8948"
        string_val: "8189"
        string_val: "4342"
        string_val: "3291"
        string_val: "220"
        string_val: "8413"
        string_val: "5129"
        string_val: "3490"
        string_val: "6242"
        string_val: "2306"
        string_val: "3056"
        string_val: "5238"
        string_val: "252"
        string_val: "7978"
        string_val: "5435"
        string_val: "872"
        string_val: "6771"
        string_val: "8476"
        string_val: "8860"
        string_val: "8152"
        string_val: "2990"
        string_val: "6129"
        string_val: "2456"
        string_val: "7019"
        string_val: "4975"
        string_val: "7156"
        string_val: "6742"
        string_val: "7697"
        string_val: "7506"
        string_val: "422"
        string_val: "2713"
        string_val: "2247"
        string_val: "5031"
        string_val: "1769"
        string_val: "5983"
        string_val: "3107"
        string_val: "7058"
        string_val: "2893"
        string_val: "8021"
        string_val: "5986"
        string_val: "7890"
        string_val: "3884"
        string_val: "5367"
        string_val: "6815"
        string_val: "1476"
        string_val: "5085"
        string_val: "1925"
        string_val: "7896"
        string_val: "5611"
        string_val: "2382"
        string_val: "1628"
        string_val: "1088"
        string_val: "5275"
        string_val: "4530"
        string_val: "5706"
        string_val: "7100"
        string_val: "9650"
        string_val: "2151"
        string_val: "4018"
        string_val: "3611"
        string_val: "4899"
        string_val: "5278"
        string_val: "5793"
        string_val: "2342"
        string_val: "2473"
        string_val: "213"
        string_val: "4881"
        string_val: "8251"
        string_val: "5363"
        string_val: "2764"
        string_val: "5170"
        string_val: "8111"
        string_val: "5678"
        string_val: "476"
        string_val: "1627"
        string_val: "7089"
        string_val: "7660"
        string_val: "2395"
        string_val: "5865"
        string_val: "6507"
        string_val: "3514"
        string_val: "3553"
        string_val: "8190"
        string_val: "429"
        string_val: "5092"
        string_val: "3995"
        string_val: "9869"
        string_val: "3878"
        string_val: "3289"
        string_val: "6361"
        string_val: "9613"
        string_val: "4754"
        string_val: "8709"
        string_val: "3638"
        string_val: "3845"
        string_val: "7405"
        string_val: "6149"
        string_val: "1898"
        string_val: "7963"
        string_val: "9947"
        string_val: "2448"
        string_val: "6639"
        string_val: "7594"
        string_val: "3414"
        string_val: "1723"
        string_val: "1504"
        string_val: "9742"
        string_val: "5914"
        string_val: "7584"
        string_val: "692"
        string_val: "3312"
        string_val: "5715"
        string_val: "3128"
        string_val: "3456"
        string_val: "5069"
        string_val: "5479"
        string_val: "2045"
        string_val: "2276"
        string_val: "5582"
        string_val: "8956"
        string_val: "8242"
        string_val: "8644"
        string_val: "407"
        string_val: "5977"
        string_val: "1194"
        string_val: "9121"
        string_val: "3933"
        string_val: "1850"
        string_val: "6264"
        string_val: "2085"
        string_val: "7574"
        string_val: "6852"
        string_val: "6302"
        string_val: "3811"
        string_val: "2273"
        string_val: "3324"
        string_val: "9433"
        string_val: "9267"
        string_val: "5436"
        string_val: "1956"
        string_val: "6625"
        string_val: "9030"
        string_val: "8276"
        string_val: "5357"
        string_val: "6647"
        string_val: "3764"
        string_val: "6192"
        string_val: "8971"
        string_val: "6524"
        string_val: "2756"
        string_val: "3154"
        string_val: "8871"
        string_val: "4763"
        string_val: "8921"
        string_val: "5647"
        string_val: "7549"
        string_val: "4960"
        string_val: "1295"
        string_val: "787"
        string_val: "7154"
        string_val: "808"
        string_val: "288"
        string_val: "5737"
        string_val: "5387"
        string_val: "5839"
        string_val: "7204"
        string_val: "7065"
        string_val: "7914"
        string_val: "1750"
        string_val: "3859"
        string_val: "2588"
        string_val: "7573"
        string_val: "5062"
        string_val: "2048"
        string_val: "8576"
        string_val: "3578"
        string_val: "3216"
        string_val: "2783"
        string_val: "2839"
        string_val: "5761"
        string_val: "7128"
        string_val: "9341"
        string_val: "7903"
        string_val: "7140"
        string_val: "2515"
        string_val: "4487"
        string_val: "833"
        string_val: "653"
        string_val: "8368"
        string_val: "7260"
        string_val: "2288"
        string_val: "5103"
        string_val: "80"
        string_val: "2760"
        string_val: "9039"
        string_val: "7791"
        string_val: "2482"
        string_val: "6585"
        string_val: "226"
        string_val: "8007"
        string_val: "2285"
        string_val: "576"
        string_val: "203"
        string_val: "623"
        string_val: "525"
        string_val: "2567"
        string_val: "4995"
        string_val: "3476"
        string_val: "4962"
        string_val: "7149"
        string_val: "2636"
        string_val: "6105"
        string_val: "8304"
        string_val: "2173"
        string_val: "1146"
        string_val: "2967"
        string_val: "2650"
        string_val: "6282"
        string_val: "1894"
        string_val: "7135"
        string_val: "379"
        string_val: "8471"
        string_val: "7871"
        string_val: "8959"
        string_val: "3332"
        string_val: "2126"
        string_val: "9611"
        string_val: "4122"
        string_val: "8698"
        string_val: "2857"
        string_val: "281"
        string_val: "347"
        string_val: "8623"
        string_val: "5252"
        string_val: "2721"
        string_val: "7655"
        string_val: "6761"
        string_val: "9301"
        string_val: "8421"
        string_val: "1044"
        string_val: "8273"
        string_val: "3227"
        string_val: "8512"
        string_val: "7625"
        string_val: "3934"
        string_val: "2370"
        string_val: "3591"
        string_val: "1280"
        string_val: "5689"
        string_val: "2034"
        string_val: "2540"
        string_val: "279"
        string_val: "3720"
        string_val: "5600"
        string_val: "6790"
        string_val: "9111"
        string_val: "9996"
        string_val: "8156"
        string_val: "9038"
        string_val: "365"
        string_val: "1887"
        string_val: "7839"
        string_val: "85"
        string_val: "7062"
        string_val: "5767"
        string_val: "2942"
        string_val: "5554"
        string_val: "6891"
        string_val: "803"
        string_val: "8029"
        string_val: "1986"
        string_val: "7270"
        string_val: "1114"
        string_val: "4724"
        string_val: "4742"
        string_val: "5014"
        string_val: "3158"
        string_val: "5100"
        string_val: "6468"
        string_val: "3160"
        string_val: "7350"
        string_val: "5854"
        string_val: "7922"
        string_val: "9082"
        string_val: "8957"
        string_val: "2121"
        string_val: "8622"
        string_val: "8207"
        string_val: "1001"
        string_val: "4854"
        string_val: "4264"
        string_val: "7556"
        string_val: "534"
        string_val: "3996"
        string_val: "8465"
        string_val: "4403"
        string_val: "28"
        string_val: "8745"
        string_val: "1164"
        string_val: "1746"
        string_val: "7380"
        string_val: "6280"
        string_val: "4430"
        string_val: "1828"
        string_val: "323"
        string_val: "2765"
        string_val: "5177"
        string_val: "6011"
        string_val: "2310"
        string_val: "1364"
        string_val: "4663"
        string_val: "2381"
        string_val: "9071"
        string_val: "197"
        string_val: "1351"
        string_val: "1881"
        string_val: "6191"
        string_val: "6654"
        string_val: "8169"
        string_val: "1162"
        string_val: "5115"
        string_val: "9615"
        string_val: "8321"
        string_val: "2258"
        string_val: "5413"
        string_val: "5822"
        string_val: "9730"
        string_val: "8554"
        string_val: "2426"
        string_val: "1831"
        string_val: "2307"
        string_val: "3079"
        string_val: "1812"
        string_val: "9687"
        string_val: "6698"
        string_val: "6470"
        string_val: "284"
        string_val: "4710"
        string_val: "2708"
        string_val: "8232"
        string_val: "5835"
        string_val: "6689"
        string_val: "577"
        string_val: "3144"
        string_val: "9939"
        string_val: "7925"
        string_val: "309"
        string_val: "9415"
        string_val: "7765"
        string_val: "7436"
        string_val: "1725"
        string_val: "7897"
        string_val: "2319"
        string_val: "5216"
        string_val: "2984"
        string_val: "3009"
        string_val: "6228"
        string_val: "7047"
        string_val: "5372"
        string_val: "1595"
        string_val: "1618"
        string_val: "2771"
        string_val: "4292"
        string_val: "7471"
        string_val: "608"
        string_val: "4318"
        string_val: "1103"
        string_val: "3168"
        string_val: "2079"
        string_val: "5047"
        string_val: "5939"
        string_val: "7078"
        string_val: "1590"
        string_val: "3684"
        string_val: "8469"
        string_val: "1931"
        string_val: "3081"
        string_val: "8394"
        string_val: "8845"
        string_val: "6079"
        string_val: "6401"
        string_val: "9165"
        string_val: "7689"
        string_val: "4914"
        string_val: "4412"
        string_val: "4634"
        string_val: "5167"
        string_val: "9068"
        string_val: "4770"
        string_val: "1548"
        string_val: "2602"
        string_val: "2376"
        string_val: "3734"
        string_val: "8012"
        string_val: "4127"
        string_val: "2367"
        string_val: "2030"
        string_val: "7079"
        string_val: "1388"
        string_val: "8575"
        string_val: "9862"
        string_val: "585"
        string_val: "2580"
        string_val: "5730"
        string_val: "7023"
        string_val: "961"
        string_val: "3110"
        string_val: "9329"
        string_val: "8783"
        string_val: "5948"
        string_val: "4728"
        string_val: "7717"
        string_val: "3139"
        string_val: "8725"
        string_val: "5844"
        string_val: "8879"
        string_val: "5886"
        string_val: "9494"
        string_val: "2616"
        string_val: "2368"
        string_val: "1975"
        string_val: "3475"
        string_val: "9219"
        string_val: "2440"
        string_val: "9908"
        string_val: "3406"
        string_val: "8558"
        string_val: "9804"
        string_val: "3388"
        string_val: "7614"
        string_val: "7626"
        string_val: "754"
        string_val: "9956"
        string_val: "2107"
        string_val: "1275"
        string_val: "4863"
        string_val: "97"
        string_val: "9041"
        string_val: "7848"
        string_val: "2785"
        string_val: "2551"
        string_val: "9767"
        string_val: "6374"
        string_val: "103"
        string_val: "5620"
        string_val: "658"
        string_val: "1957"
        string_val: "2879"
        string_val: "5356"
        string_val: "4027"
        string_val: "8017"
        string_val: "4153"
        string_val: "1906"
        string_val: "5697"
        string_val: "6498"
        string_val: "390"
        string_val: "2986"
        string_val: "6394"
        string_val: "8016"
        string_val: "3233"
        string_val: "785"
        string_val: "4354"
        string_val: "289"
        string_val: "967"
        string_val: "6100"
        string_val: "9599"
        string_val: "6186"
        string_val: "7496"
        string_val: "5251"
        string_val: "7356"
        string_val: "8556"
        string_val: "9161"
        string_val: "6953"
        string_val: "1581"
        string_val: "1977"
        string_val: "9548"
        string_val: "4508"
        string_val: "8279"
        string_val: "6445"
        string_val: "6349"
        string_val: "2044"
        string_val: "1690"
        string_val: "5995"
        string_val: "8009"
        string_val: "4003"
        string_val: "3758"
        string_val: "6448"
        string_val: "2405"
        string_val: "629"
        string_val: "2029"
        string_val: "756"
        string_val: "630"
        string_val: "7146"
        string_val: "5441"
        string_val: "9076"
        string_val: "319"
        string_val: "5162"
        string_val: "4697"
        string_val: "5495"
        string_val: "6539"
        string_val: "238"
        string_val: "4440"
        string_val: "3010"
        string_val: "6252"
        string_val: "9662"
        string_val: "9391"
        string_val: "829"
        string_val: "5004"
        string_val: "5665"
        string_val: "7745"
        string_val: "5577"
        string_val: "3777"
        string_val: "3827"
        string_val: "5433"
        string_val: "8278"
        string_val: "2"
        string_val: "1511"
        string_val: "4874"
        string_val: "6777"
        string_val: "3403"
        string_val: "8839"
        string_val: "4218"
        string_val: "6992"
        string_val: "6091"
        string_val: "4213"
        string_val: "5439"
        string_val: "1818"
        string_val: "2263"
        string_val: "6975"
        string_val: "3114"
        string_val: "5098"
        string_val: "9562"
        string_val: "9723"
        string_val: "1059"
        string_val: "3354"
        string_val: "674"
        string_val: "3643"
        string_val: "927"
        string_val: "9836"
        string_val: "1000"
        string_val: "45"
        string_val: "995"
        string_val: "5800"
        string_val: "5769"
        string_val: "3357"
        string_val: "7729"
        string_val: "1673"
        string_val: "2542"
        string_val: "2441"
        string_val: "9847"
        string_val: "1321"
        string_val: "2097"
        string_val: "5942"
        string_val: "1349"
        string_val: "3133"
        string_val: "8612"
        string_val: "9961"
        string_val: "9959"
        string_val: "5026"
        string_val: "503"
        string_val: "1846"
        string_val: "8245"
        string_val: "2390"
        string_val: "8624"
        string_val: "2232"
        string_val: "3955"
        string_val: "3200"
        string_val: "3292"
        string_val: "2868"
        string_val: "9488"
        string_val: "9446"
        string_val: "767"
        string_val: "4917"
        string_val: "7441"
        string_val: "2895"
        string_val: "4691"
        string_val: "9609"
        string_val: "4969"
        string_val: "5741"
        string_val: "8562"
        string_val: "2859"
        string_val: "6569"
        string_val: "6439"
        string_val: "2001"
        string_val: "2176"
        string_val: "8456"
        string_val: "2935"
        string_val: "9083"
        string_val: "7721"
        string_val: "9538"
        string_val: "601"
        string_val: "7748"
        string_val: "8633"
        string_val: "6037"
        string_val: "7735"
        string_val: "3145"
        string_val: "3618"
        string_val: "2314"
        string_val: "5556"
        string_val: "8791"
        string_val: "6652"
        string_val: "5168"
        string_val: "804"
        string_val: "5619"
        string_val: "4844"
        string_val: "6611"
        string_val: "1644"
        string_val: "2453"
        string_val: "1477"
        string_val: "3791"
        string_val: "4871"
        string_val: "4240"
        string_val: "1060"
        string_val: "8942"
        string_val: "2075"
        string_val: "3461"
        string_val: "552"
        string_val: "9522"
        string_val: "8203"
        string_val: "5116"
        string_val: "5621"
        string_val: "6947"
        string_val: "2866"
        string_val: "4791"
        string_val: "2750"
        string_val: "5624"
        string_val: "8478"
        string_val: "4448"
        string_val: "3147"
        string_val: "4194"
        string_val: "2774"
        string_val: "2957"
        string_val: "477"
        string_val: "9581"
        string_val: "4099"
        string_val: "783"
        string_val: "1917"
        string_val: "594"
        string_val: "4478"
        string_val: "7377"
        string_val: "6502"
        string_val: "8406"
        string_val: "3966"
        string_val: "4643"
        string_val: "4673"
        string_val: "7562"
        string_val: "1370"
        string_val: "1981"
        string_val: "8789"
        string_val: "6016"
        string_val: "3321"
        string_val: "6768"
        string_val: "2207"
        string_val: "6926"
        string_val: "2531"
        string_val: "3633"
        string_val: "1589"
        string_val: "4505"
        string_val: "1091"
        string_val: "1457"
        string_val: "1243"
        string_val: "5832"
        string_val: "4510"
        string_val: "518"
        string_val: "3374"
        string_val: "1772"
        string_val: "6930"
        string_val: "7883"
        string_val: "8191"
        string_val: "9347"
        string_val: "8411"
        string_val: "2955"
        string_val: "4211"
        string_val: "4965"
        string_val: "3658"
        string_val: "4882"
        string_val: "4149"
        string_val: "3157"
        string_val: "2308"
        string_val: "8915"
        string_val: "5208"
        string_val: "6844"
        string_val: "5502"
        string_val: "1888"
        string_val: "2609"
        string_val: "4284"
        string_val: "9960"
        string_val: "2248"
        string_val: "1918"
        string_val: "9213"
        string_val: "8258"
        string_val: "2355"
        string_val: "6809"
        string_val: "8688"
        string_val: "4659"
        string_val: "2422"
        string_val: "3294"
        string_val: "7069"
        string_val: "9928"
        string_val: "5199"
        string_val: "3950"
        string_val: "11"
        string_val: "1061"
        string_val: "8808"
        string_val: "271"
        string_val: "4349"
        string_val: "1254"
        string_val: "5273"
        string_val: "7291"
        string_val: "8192"
        string_val: "3844"
        string_val: "1074"
        string_val: "1085"
        string_val: "6170"
        string_val: "6959"
        string_val: "2648"
        string_val: "2734"
        string_val: "4732"
        string_val: "2794"
        string_val: "4846"
        string_val: "3436"
        string_val: "7392"
        string_val: "5898"
        string_val: "7483"
        string_val: "5847"
        string_val: "2486"
        string_val: "8927"
        string_val: "8638"
        string_val: "5629"
        string_val: "8584"
        string_val: "9313"
        string_val: "4878"
        string_val: "1962"
        string_val: "1357"
        string_val: "4533"
        string_val: "1518"
        string_val: "7373"
        string_val: "8925"
        string_val: "5969"
        string_val: "7702"
        string_val: "8490"
        string_val: "6952"
        string_val: "4579"
        string_val: "2417"
        string_val: "5950"
        string_val: "8040"
        string_val: "5924"
        string_val: "2063"
        string_val: "1734"
        string_val: "7575"
        string_val: "5468"
        string_val: "6744"
        string_val: "2826"
        string_val: "2421"
        string_val: "9113"
        string_val: "6261"
        string_val: "557"
        string_val: "7500"
        string_val: "5154"
        string_val: "9425"
        string_val: "2711"
        string_val: "8838"
        string_val: "9934"
        string_val: "9812"
        string_val: "2019"
        string_val: "1003"
        string_val: "9237"
        string_val: "6528"
        string_val: "2510"
        string_val: "1987"
        string_val: "1202"
        string_val: "3969"
        string_val: "8320"
        string_val: "3404"
        string_val: "780"
        string_val: "2571"
        string_val: "3808"
        string_val: "9321"
        string_val: "4335"
        string_val: "7461"
        string_val: "2939"
        string_val: "993"
        string_val: "6293"
        string_val: "3390"
        string_val: "772"
        string_val: "471"
        string_val: "437"
        string_val: "7318"
        string_val: "812"
        string_val: "2337"
        string_val: "2822"
        string_val: "6727"
        string_val: "7593"
        string_val: "8398"
        string_val: "6842"
        string_val: "9658"
        string_val: "1090"
        string_val: "3733"
        string_val: "701"
        string_val: "9461"
        string_val: "4304"
        string_val: "1835"
        string_val: "3903"
        string_val: "2430"
        string_val: "3036"
        string_val: "1123"
        string_val: "3775"
        string_val: "2312"
        string_val: "8716"
        string_val: "5943"
        string_val: "4802"
        string_val: "8493"
        string_val: "5667"
        string_val: "9140"
        string_val: "7659"
        string_val: "2767"
        string_val: "242"
        string_val: "5430"
        string_val: "290"
        string_val: "2631"
        string_val: "3785"
        string_val: "4627"
        string_val: "8849"
        string_val: "4457"
        string_val: "4212"
        string_val: "4958"
        string_val: "8164"
        string_val: "5896"
        string_val: "2018"
        string_val: "3169"
        string_val: "586"
        string_val: "2901"
        string_val: "6574"
        string_val: "7213"
        string_val: "6784"
        string_val: "1626"
        string_val: "1171"
        string_val: "1298"
        string_val: "8342"
        string_val: "5404"
        string_val: "5518"
        string_val: "8588"
        string_val: "3666"
        string_val: "8677"
        string_val: "6769"
        string_val: "231"
        string_val: "8518"
        string_val: "4906"
        string_val: "7530"
        string_val: "8795"
        string_val: "6537"
        string_val: "116"
        string_val: "8968"
        string_val: "5019"
        string_val: "633"
        string_val: "1369"
        string_val: "3220"
        string_val: "6126"
        string_val: "5532"
        string_val: "440"
        string_val: "5001"
        string_val: "6978"
        string_val: "1246"
        string_val: "969"
        string_val: "8593"
        string_val: "9238"
        string_val: "3508"
        string_val: "9162"
        string_val: "5023"
        string_val: "215"
        string_val: "5192"
        string_val: "9012"
        string_val: "59"
        string_val: "898"
        string_val: "3822"
        string_val: "9644"
        string_val: "3420"
        string_val: "5480"
        string_val: "68"
        string_val: "9777"
        string_val: "8161"
        string_val: "4919"
        string_val: "6157"
        string_val: "7966"
        string_val: "9852"
        string_val: "1405"
        string_val: "2062"
        string_val: "8436"
        string_val: "9132"
        string_val: "9829"
        string_val: "171"
        string_val: "6145"
        string_val: "7256"
        string_val: "5296"
        string_val: "8218"
        string_val: "2581"
        string_val: "6112"
        string_val: "2948"
        string_val: "1879"
        string_val: "6907"
        string_val: "1984"
        string_val: "963"
        string_val: "8527"
        string_val: "1500"
        string_val: "3489"
        string_val: "3629"
        string_val: "7553"
        string_val: "1308"
        string_val: "9460"
        string_val: "4895"
        string_val: "7893"
        string_val: "4237"
        string_val: "3773"
        string_val: "1620"
        string_val: "8130"
        string_val: "7716"
        string_val: "6869"
        string_val: "6411"
        string_val: "1964"
        string_val: "7501"
        string_val: "7348"
        string_val: "3364"
        string_val: "9168"
        string_val: "8117"
        string_val: "3303"
        string_val: "7860"
        string_val: "4953"
        string_val: "6440"
        string_val: "8357"
        string_val: "8037"
        string_val: "6619"
        string_val: "63"
        string_val: "5661"
        string_val: "7849"
        string_val: "3973"
        string_val: "8727"
        string_val: "8155"
        string_val: "2140"
        string_val: "3674"
        string_val: "3831"
        string_val: "4011"
        string_val: "3904"
        string_val: "1242"
        string_val: "3599"
        string_val: "2605"
        string_val: "4081"
        string_val: "5516"
        string_val: "8761"
        string_val: "5108"
        string_val: "7815"
        string_val: "3659"
        string_val: "941"
        string_val: "1278"
        string_val: "1611"
        string_val: "1198"
        string_val: "3162"
        string_val: "9302"
        string_val: "7635"
        string_val: "1800"
        string_val: "6066"
        string_val: "4704"
        string_val: "9707"
        string_val: "1762"
        string_val: "6162"
        string_val: "1070"
        string_val: "4214"
        string_val: "3050"
        string_val: "972"
        string_val: "5042"
        string_val: "6265"
        string_val: "3589"
        string_val: "8814"
        string_val: "3588"
        string_val: "2466"
        string_val: "6004"
        string_val: "1318"
        string_val: "6231"
        string_val: "9336"
        string_val: "7273"
        string_val: "6473"
        string_val: "513"
        string_val: "8975"
        string_val: "3382"
        string_val: "7218"
        string_val: "219"
        string_val: "9332"
        string_val: "7726"
        string_val: "7738"
        string_val: "4930"
        string_val: "9227"
        string_val: "3682"
        string_val: "3031"
        string_val: "8841"
        string_val: "4029"
        string_val: "2818"
        string_val: "6846"
        string_val: "684"
        string_val: "6133"
        string_val: "5717"
        string_val: "1181"
        string_val: "718"
        string_val: "9575"
        string_val: "6626"
        string_val: "5289"
        string_val: "1062"
        string_val: "4096"
        string_val: "5674"
        string_val: "5080"
        string_val: "4185"
        string_val: "4957"
        string_val: "9057"
        string_val: "7040"
        string_val: "2134"
        string_val: "2875"
        string_val: "892"
        string_val: "775"
        string_val: "224"
        string_val: "556"
        string_val: "4740"
        string_val: "5172"
        string_val: "1490"
        string_val: "4839"
        string_val: "867"
        string_val: "3472"
        string_val: "3898"
        string_val: "7412"
        string_val: "2257"
        string_val: "5930"
        string_val: "2668"
        string_val: "9197"
        string_val: "2937"
        string_val: "9655"
        string_val: "3410"
        string_val: "2569"
        string_val: "3383"
        string_val: "2141"
        string_val: "427"
        string_val: "6379"
        string_val: "882"
        string_val: "3805"
        string_val: "6515"
        string_val: "6316"
        string_val: "9982"
        string_val: "6759"
        string_val: "9639"
        string_val: "9045"
        string_val: "4302"
        string_val: "1488"
        string_val: "4812"
        string_val: "5101"
        string_val: "6060"
        string_val: "9437"
        string_val: "2703"
        string_val: "8283"
        string_val: "6629"
        string_val: "5551"
        string_val: "5692"
        string_val: "1791"
        string_val: "4834"
        string_val: "2125"
        string_val: "902"
        string_val: "8049"
        string_val: "5944"
        string_val: "3803"
        string_val: "3757"
        string_val: "7675"
        string_val: "4941"
        string_val: "1179"
        string_val: "4551"
        string_val: "3225"
        string_val: "7375"
        string_val: "8530"
        string_val: "1430"
        string_val: "2133"
        string_val: "1260"
        string_val: "3148"
        string_val: "5121"
        string_val: "3548"
        string_val: "9390"
        string_val: "4038"
        string_val: "9725"
        string_val: "6179"
        string_val: "2706"
        string_val: "551"
        string_val: "2680"
        string_val: "5878"
        string_val: "5833"
        string_val: "3868"
        string_val: "4826"
        string_val: "9203"
        string_val: "9009"
        string_val: "6459"
        string_val: "864"
        string_val: "3116"
        string_val: "4334"
        string_val: "5451"
        string_val: "8590"
        string_val: "7106"
        string_val: "5973"
        string_val: "9393"
        string_val: "4968"
        string_val: "5050"
        string_val: "7145"
        string_val: "3400"
        string_val: "2930"
        string_val: "9248"
        string_val: "7159"
        string_val: "4948"
        string_val: "3376"
        string_val: "3493"
        string_val: "8308"
        string_val: "2714"
        string_val: "3454"
        string_val: "3238"
        string_val: "5564"
        string_val: "6617"
        string_val: "5586"
        string_val: "897"
        string_val: "8685"
        string_val: "6932"
        string_val: "4653"
        string_val: "43"
        string_val: "8265"
        string_val: "2796"
        string_val: "7989"
        string_val: "9962"
        string_val: "4467"
        string_val: "6259"
        string_val: "6467"
        string_val: "1185"
        string_val: "4324"
        string_val: "6850"
        string_val: "7299"
        string_val: "4139"
        string_val: "6493"
        string_val: "9878"
        string_val: "5471"
        string_val: "2526"
        string_val: "1474"
        string_val: "9654"
        string_val: "6384"
        string_val: "9485"
        string_val: "6437"
        string_val: "6586"
        string_val: "916"
        string_val: "7814"
        string_val: "71"
        string_val: "7881"
        string_val: "5956"
        string_val: "2700"
        string_val: "3602"
        string_val: "3760"
        string_val: "997"
        string_val: "4522"
        string_val: "6389"
        string_val: "2435"
        string_val: "6558"
        string_val: "4281"
        string_val: "6958"
        string_val: "2619"
        string_val: "3449"
        string_val: "2686"
        string_val: "363"
        string_val: "7481"
        string_val: "2259"
        string_val: "4751"
        string_val: "6564"
        string_val: "6207"
        string_val: "9361"
        string_val: "7337"
        string_val: "8621"
        string_val: "4135"
        string_val: "4223"
        string_val: "8670"
        string_val: "9764"
        string_val: "9344"
        string_val: "7999"
        string_val: "9848"
        string_val: "5860"
        string_val: "9588"
        string_val: "9118"
        string_val: "8272"
        string_val: "1786"
        string_val: "5575"
        string_val: "6750"
        string_val: "7434"
        string_val: "6169"
        string_val: "3098"
        string_val: "7445"
        string_val: "8010"
        string_val: "4701"
        string_val: "7621"
        string_val: "9668"
        string_val: "990"
        string_val: "1926"
        string_val: "6403"
        string_val: "5531"
        string_val: "8309"
        string_val: "1323"
        string_val: "4080"
        string_val: "8153"
        string_val: "1336"
        string_val: "1674"
        string_val: "4450"
        string_val: "6522"
        string_val: "4300"
        string_val: "8284"
        string_val: "2600"
        string_val: "7067"
        string_val: "1676"
        string_val: "9600"
        string_val: "5558"
        string_val: "693"
        string_val: "9019"
        string_val: "2516"
        string_val: "2646"
        string_val: "2823"
        string_val: "7767"
        string_val: "4549"
        string_val: "6712"
        string_val: "4061"
        string_val: "6966"
        string_val: "1635"
        string_val: "4347"
        string_val: "9946"
        string_val: "1355"
        string_val: "1863"
        string_val: "6599"
        string_val: "1520"
        string_val: "2787"
        string_val: "112"
        string_val: "411"
        string_val: "4473"
        string_val: "405"
        string_val: "4385"
        string_val: "2408"
        string_val: "6076"
        string_val: "5757"
        string_val: "6986"
        string_val: "3418"
        string_val: "7886"
        string_val: "849"
        string_val: "3344"
        string_val: "5681"
        string_val: "9186"
        string_val: "8511"
        string_val: "3766"
        string_val: "300"
        string_val: "1855"
        string_val: "3891"
        string_val: "5812"
        string_val: "5819"
        string_val: "4290"
        string_val: "3994"
        string_val: "8920"
        string_val: "5253"
        string_val: "132"
        string_val: "2525"
        string_val: "8150"
        string_val: "6109"
        string_val: "8969"
        string_val: "3520"
        string_val: "1597"
        string_val: "4474"
        string_val: "2284"
        string_val: "9915"
        string_val: "5156"
        string_val: "9754"
        string_val: "2148"
        string_val: "8919"
        string_val: "6887"
        string_val: "6568"
        string_val: "5219"
        string_val: "3441"
        string_val: "5066"
        string_val: "7102"
        string_val: "7179"
        string_val: "9794"
        string_val: "8057"
        string_val: "8204"
        string_val: "255"
        string_val: "5666"
        string_val: "7449"
        string_val: "3640"
        string_val: "5585"
        string_val: "4907"
        string_val: "3748"
        string_val: "2753"
        string_val: "3525"
        string_val: "7906"
        string_val: "6104"
        string_val: "1952"
        string_val: "2956"
        string_val: "3976"
        string_val: "9734"
        string_val: "4208"
        string_val: "2645"
        string_val: "2189"
        string_val: "5268"
        string_val: "3379"
        string_val: "547"
        string_val: "2639"
        string_val: "9235"
        string_val: "9043"
        string_val: "163"
        string_val: "8509"
        string_val: "79"
        string_val: "8883"
        string_val: "6636"
        string_val: "1189"
        string_val: "5408"
        string_val: "4476"
        string_val: "9226"
        string_val: "1727"
        string_val: "2670"
        string_val: "8585"
        string_val: "1316"
        string_val: "822"
        string_val: "9886"
        string_val: "8998"
        string_val: "1461"
        string_val: "9782"
        string_val: "7880"
        string_val: "5539"
        string_val: "597"
        string_val: "8966"
        string_val: "3021"
        string_val: "9388"
        string_val: "5180"
        string_val: "9078"
        string_val: "3857"
        string_val: "5941"
        string_val: "9966"
        string_val: "8354"
        string_val: "9382"
        string_val: "3883"
        string_val: "9051"
        string_val: "9137"
        string_val: "2885"
        string_val: "1793"
        string_val: "7378"
        string_val: "9414"
        string_val: "8407"
        string_val: "9696"
        string_val: "509"
        string_val: "621"
        string_val: "7681"
        string_val: "4265"
        string_val: "5922"
        string_val: "619"
        string_val: "6894"
        string_val: "6789"
        string_val: "824"
        string_val: "5802"
        string_val: "1228"
        string_val: "4705"
        string_val: "815"
        string_val: "2559"
        string_val: "1661"
        string_val: "7400"
        string_val: "5288"
        string_val: "6725"
        string_val: "7768"
        string_val: "5614"
        string_val: "9758"
        string_val: "3566"
        string_val: "3214"
        string_val: "8823"
        string_val: "315"
        string_val: "606"
        string_val: "2812"
        string_val: "6600"
        string_val: "8162"
        string_val: "4380"
        string_val: "2718"
        string_val: "896"
        string_val: "668"
        string_val: "3721"
        string_val: "9455"
        string_val: "134"
        string_val: "4339"
        string_val: "4242"
        string_val: "5349"
        string_val: "8751"
        string_val: "1650"
        string_val: "6378"
        string_val: "4031"
        string_val: "1112"
        string_val: "8196"
        string_val: "6456"
        string_val: "2674"
        string_val: "1247"
        string_val: "1133"
        string_val: "626"
        string_val: "9680"
        string_val: "6754"
        string_val: "4835"
        string_val: "1915"
        string_val: "559"
        string_val: "4428"
        string_val: "6535"
        string_val: "130"
        string_val: "225"
        string_val: "4911"
        string_val: "2485"
        string_val: "7288"
        string_val: "9984"
        string_val: "3550"
        string_val: "1043"
        string_val: "875"
        string_val: "339"
        string_val: "2663"
        string_val: "235"
        string_val: "5913"
        string_val: "61"
        string_val: "4499"
        string_val: "3130"
        string_val: "2254"
        string_val: "2517"
        string_val: "5469"
        string_val: "6836"
        string_val: "8202"
        string_val: "869"
        string_val: "5679"
        string_val: "7013"
        string_val: "1719"
        string_val: "9702"
        string_val: "8506"
        string_val: "9348"
        string_val: "2011"
        string_val: "8275"
        string_val: "1287"
        string_val: "4614"
        string_val: "160"
        string_val: "5220"
        string_val: "110"
        string_val: "5804"
        string_val: "9320"
        string_val: "4409"
        string_val: "9652"
        string_val: "7812"
        string_val: "8881"
        string_val: "680"
        string_val: "8330"
        string_val: "6152"
        string_val: "755"
        string_val: "409"
        string_val: "7782"
        string_val: "7480"
        string_val: "5112"
        string_val: "2025"
        string_val: "6720"
        string_val: "4896"
        string_val: "2538"
        string_val: "2384"
        string_val: "165"
        string_val: "9953"
        string_val: "947"
        string_val: "852"
        string_val: "6824"
        string_val: "2156"
        string_val: "915"
        string_val: "8903"
        string_val: "9825"
        string_val: "5374"
        string_val: "8536"
        string_val: "4783"
        string_val: "8468"
        string_val: "4426"
        string_val: "4859"
        string_val: "1867"
        string_val: "1714"
        string_val: "2225"
        string_val: "9192"
        string_val: "735"
        string_val: "6263"
        string_val: "4806"
        string_val: "2841"
        string_val: "4340"
        string_val: "4227"
        string_val: "8949"
        string_val: "729"
        string_val: "8235"
        string_val: "8069"
        string_val: "7393"
        string_val: "6951"
        string_val: "7772"
        string_val: "3368"
        string_val: "380"
        string_val: "5897"
        string_val: "6888"
        string_val: "7561"
        string_val: "9319"
        string_val: "3278"
        string_val: "6400"
        string_val: "5340"
        string_val: "4709"
        string_val: "3242"
        string_val: "6659"
        string_val: "7877"
        string_val: "3813"
        string_val: "1375"
        string_val: "2083"
        string_val: "8430"
        string_val: "578"
        string_val: "3703"
        string_val: "6362"
        string_val: "8731"
        string_val: "6637"
        string_val: "4657"
        string_val: "2009"
        string_val: "146"
        string_val: "3336"
        string_val: "7795"
        string_val: "9044"
        string_val: "3510"
        string_val: "5990"
        string_val: "4514"
        string_val: "8665"
        string_val: "8228"
        string_val: "9624"
        string_val: "2633"
        string_val: "9673"
        string_val: "722"
        string_val: "1125"
        string_val: "434"
        string_val: "6996"
        string_val: "335"
        string_val: "9360"
        string_val: "6575"
        string_val: "6500"
        string_val: "1458"
        string_val: "3952"
        string_val: "3001"
        string_val: "8147"
        string_val: "1640"
        string_val: "6579"
        string_val: "4537"
        string_val: "6095"
        string_val: "1266"
        string_val: "8431"
        string_val: "8317"
        string_val: "9003"
        string_val: "6889"
        string_val: "8225"
        string_val: "9849"
        string_val: "3825"
        string_val: "4707"
        string_val: "9637"
        string_val: "6883"
        string_val: "3043"
        string_val: "2511"
        string_val: "3556"
        string_val: "9810"
        string_val: "6421"
        string_val: "750"
        string_val: "3531"
        string_val: "4619"
        string_val: "3887"
        string_val: "847"
        string_val: "910"
        string_val: "8799"
        string_val: "2642"
        string_val: "1459"
        string_val: "4460"
        string_val: "3653"
        string_val: "7637"
        string_val: "162"
        string_val: "2928"
        string_val: "2077"
        string_val: "6148"
        string_val: "3164"
        string_val: "814"
        string_val: "7119"
        string_val: "6667"
        string_val: "8999"
        string_val: "1365"
        string_val: "2424"
        string_val: "9692"
        string_val: "2371"
        string_val: "655"
        string_val: "7618"
        string_val: "6414"
        string_val: "8557"
        string_val: "5788"
        string_val: "9863"
        string_val: "2695"
        string_val: "3437"
        string_val: "5911"
        string_val: "6000"
        string_val: "4654"
        string_val: "1400"
        string_val: "7670"
        string_val: "3502"
        string_val: "3361"
        string_val: "124"
        string_val: "2317"
        string_val: "4938"
        string_val: "9971"
        string_val: "1999"
        string_val: "7526"
        string_val: "7851"
        string_val: "9590"
        string_val: "8290"
        string_val: "7276"
        string_val: "4575"
        string_val: "1765"
        string_val: "2155"
        string_val: "7199"
        string_val: "745"
        string_val: "843"
        string_val: "642"
        string_val: "3625"
        string_val: "3848"
        string_val: "3724"
        string_val: "5064"
        string_val: "3006"
        string_val: "6307"
        string_val: "1097"
        string_val: "9850"
        string_val: "3012"
        string_val: "6344"
        string_val: "6987"
        string_val: "343"
        string_val: "862"
        string_val: "8050"
        string_val: "5688"
        string_val: "403"
        string_val: "3771"
        string_val: "9965"
        string_val: "8144"
        string_val: "2749"
        string_val: "6238"
        string_val: "9291"
        string_val: "2149"
        string_val: "1794"
        string_val: "4270"
        string_val: "1973"
        string_val: "2582"
        string_val: "9472"
        string_val: "6692"
        string_val: "5874"
        string_val: "9760"
        string_val: "240"
        string_val: "8867"
        string_val: "4686"
        string_val: "7769"
        string_val: "2564"
        string_val: "4702"
        string_val: "9204"
        string_val: "5652"
        string_val: "8592"
        string_val: "1916"
        string_val: "3265"
        string_val: "4946"
        string_val: "7939"
        string_val: "8237"
        string_val: "3457"
        string_val: "9540"
        string_val: "3181"
        string_val: "7430"
        string_val: "8334"
        string_val: "928"
        string_val: "5967"
        string_val: "7711"
        string_val: "5994"
        string_val: "9316"
        string_val: "9465"
        string_val: "1039"
        string_val: "5560"
        string_val: "3608"
        string_val: "8851"
        string_val: "8443"
        string_val: "3880"
        string_val: "464"
        string_val: "115"
        string_val: "2682"
        string_val: "2988"
        string_val: "1889"
        string_val: "237"
        string_val: "3918"
        string_val: "5675"
        string_val: "3498"
        string_val: "9931"
        string_val: "48"
        string_val: "8780"
        string_val: "72"
        string_val: "5733"
        string_val: "4157"
        string_val: "7428"
        string_val: "3678"
        string_val: "8611"
        string_val: "7085"
        string_val: "9837"
        string_val: "4639"
        string_val: "4694"
        string_val: "5782"
        string_val: "4607"
        string_val: "6976"
        string_val: "4086"
        string_val: "6325"
        string_val: "1848"
        string_val: "4141"
        string_val: "8328"
        string_val: "5952"
        string_val: "743"
        string_val: "2519"
        string_val: "614"
        string_val: "6584"
        string_val: "5097"
        string_val: "6971"
        string_val: "6051"
        string_val: "211"
        string_val: "1576"
        string_val: "1544"
        string_val: "6377"
        string_val: "5893"
        string_val: "9251"
        string_val: "5703"
        string_val: "2773"
        string_val: "4668"
        string_val: "1204"
        string_val: "8598"
        string_val: "8014"
        string_val: "4633"
        string_val: "7808"
        string_val: "2576"
        string_val: "5524"
        string_val: "5501"
        string_val: "3709"
        string_val: "193"
        string_val: "254"
        string_val: "8873"
        string_val: "8520"
        string_val: "5364"
        string_val: "2026"
        string_val: "5980"
        string_val: "9096"
        string_val: "1513"
        string_val: "1137"
        string_val: "3033"
        string_val: "9358"
        string_val: "4359"
        string_val: "8201"
        string_val: "5718"
        string_val: "7025"
        string_val: "5021"
        string_val: "9184"
        string_val: "1065"
        string_val: "3570"
        string_val: "3532"
        string_val: "9681"
        string_val: "7596"
        string_val: "414"
        string_val: "7792"
        string_val: "406"
        string_val: "7928"
        string_val: "6241"
        string_val: "2731"
        string_val: "1683"
        string_val: "7320"
        string_val: "8990"
        string_val: "3013"
        string_val: "647"
        string_val: "6604"
        string_val: "7015"
        string_val: "6505"
        string_val: "7850"
        string_val: "9551"
        string_val: "5698"
        string_val: "5925"
        string_val: "6840"
        string_val: "3789"
        string_val: "712"
        string_val: "5105"
        string_val: "131"
        string_val: "8"
        string_val: "8521"
        string_val: "5266"
        string_val: "885"
        string_val: "4094"
        string_val: "8651"
        string_val: "4641"
        string_val: "6872"
        string_val: "778"
        string_val: "532"
        string_val: "7009"
        string_val: "7262"
        string_val: "9070"
        string_val: "1583"
        string_val: "4936"
        string_val: "1045"
        string_val: "4665"
        string_val: "3571"
        string_val: "3605"
        string_val: "98"
        string_val: "8898"
        string_val: "3706"
        string_val: "4721"
        string_val: "5714"
        string_val: "1386"
        string_val: "1623"
        string_val: "6121"
        string_val: "65"
        string_val: "9728"
        string_val: "7777"
        string_val: "4516"
        string_val: "2781"
        string_val: "6724"
        string_val: "4570"
        string_val: "2211"
        string_val: "4766"
        string_val: "1201"
        string_val: "7469"
        string_val: "3408"
        string_val: "6902"
        string_val: "6807"
        string_val: "95"
        string_val: "4964"
        string_val: "7565"
        string_val: "7951"
        string_val: "8385"
        string_val: "6864"
        string_val: "8616"
        string_val: "7930"
        string_val: "3492"
        string_val: "1027"
        string_val: "7673"
        string_val: "5456"
        string_val: "9327"
        string_val: "7402"
        string_val: "5383"
        string_val: "9558"
        string_val: "4858"
        string_val: "3479"
        string_val: "5293"
        string_val: "2589"
        string_val: "8477"
        string_val: "4106"
        string_val: "9974"
        string_val: "1802"
        string_val: "9149"
        string_val: "554"
        string_val: "5292"
        string_val: "7862"
        string_val: "6994"
        string_val: "3772"
        string_val: "4375"
        string_val: "5603"
        string_val: "6797"
        string_val: "500"
        string_val: "1741"
        string_val: "8367"
        string_val: "6204"
        string_val: "671"
        string_val: "3644"
        string_val: "3095"
        string_val: "3097"
        string_val: "7076"
        string_val: "9811"
        string_val: "6290"
        string_val: "4103"
        string_val: "7954"
        string_val: "6324"
        string_val: "9957"
        string_val: "8595"
        string_val: "8958"
        string_val: "2897"
        string_val: "2836"
        string_val: "7054"
        string_val: "5638"
        string_val: "4230"
        string_val: "2359"
        string_val: "7538"
        string_val: "5606"
        string_val: "4314"
        string_val: "6226"
        string_val: "6420"
        string_val: "8548"
        string_val: "1055"
        string_val: "3197"
        string_val: "9380"
        string_val: "9328"
        string_val: "4687"
        string_val: "9397"
        string_val: "5867"
        string_val: "7695"
        string_val: "4495"
        string_val: "5233"
        string_val: "6668"
        string_val: "3256"
        string_val: "6045"
        string_val: "5825"
        string_val: "734"
        string_val: "5395"
        string_val: "9802"
        string_val: "1263"
        string_val: "3869"
        string_val: "3464"
        string_val: "1502"
        string_val: "2166"
        string_val: "5684"
        string_val: "9902"
        string_val: "120"
        string_val: "1537"
        string_val: "6330"
        string_val: "4534"
        string_val: "148"
        string_val: "3790"
        string_val: "7747"
        string_val: "5935"
        string_val: "7319"
        string_val: "6461"
        string_val: "4249"
        string_val: "5217"
        string_val: "3385"
        string_val: "9843"
        string_val: "3769"
        string_val: "6615"
        string_val: "3317"
        string_val: "4066"
        string_val: "6989"
        string_val: "5398"
        string_val: "5285"
        string_val: "6080"
        string_val: "3485"
        string_val: "2318"
        string_val: "4865"
        string_val: "9533"
        string_val: "2238"
        string_val: "7371"
        string_val: "5450"
        string_val: "1890"
        string_val: "3338"
        string_val: "6491"
        string_val: "4126"
        string_val: "46"
        string_val: "5077"
        string_val: "8641"
        string_val: "6655"
        string_val: "6731"
        string_val: "1106"
        string_val: "6449"
        string_val: "8944"
        string_val: "7712"
        string_val: "8100"
        string_val: "7713"
        string_val: "5754"
        string_val: "3193"
        string_val: "528"
        string_val: "3339"
        string_val: "8442"
        string_val: "3947"
        string_val: "8620"
        string_val: "9943"
        string_val: "4356"
        string_val: "8448"
        string_val: "6102"
        string_val: "144"
        string_val: "689"
        string_val: "4023"
        string_val: "5051"
        string_val: "6198"
        string_val: "3922"
        string_val: "3290"
        string_val: "1186"
        string_val: "9136"
        string_val: "2218"
        string_val: "3176"
        string_val: "67"
        string_val: "1665"
        string_val: "4528"
        string_val: "7194"
        string_val: "1121"
        string_val: "410"
        string_val: "4475"
        string_val: "9697"
        string_val: "4391"
        string_val: "7494"
        string_val: "6167"
        string_val: "6067"
        string_val: "6426"
        string_val: "3477"
        string_val: "2351"
        string_val: "726"
        string_val: "4415"
        string_val: "587"
        string_val: "1310"
        string_val: "5488"
        string_val: "7511"
        string_val: "353"
        string_val: "6785"
        string_val: "1075"
        string_val: "4952"
        string_val: "4796"
        string_val: "9616"
        string_val: "1747"
        string_val: "2325"
        string_val: "5419"
        string_val: "9196"
        string_val: "9622"
        string_val: "2881"
        string_val: "443"
        string_val: "4394"
        string_val: "4111"
        string_val: "9733"
        string_val: "8753"
        string_val: "4047"
        string_val: "2766"
        string_val: "4831"
        string_val: "3617"
        string_val: "4998"
        string_val: "184"
        string_val: "6030"
        string_val: "2098"
        string_val: "4651"
        string_val: "6561"
        string_val: "5486"
        string_val: "989"
        string_val: "7657"
        string_val: "1965"
        string_val: "835"
        string_val: "3964"
        string_val: "9050"
        string_val: "5618"
        string_val: "4587"
        string_val: "1206"
        string_val: "1451"
        string_val: "9549"
        string_val: "1991"
        string_val: "9838"
        string_val: "5202"
        string_val: "4809"
        string_val: "7917"
        string_val: "6332"
        string_val: "7891"
        string_val: "4285"
        string_val: "1767"
        string_val: "3663"
        string_val: "4316"
        string_val: "5509"
        string_val: "4175"
        string_val: "7498"
        string_val: "8748"
        string_val: "5862"
        string_val: "6409"
        string_val: "9704"
        string_val: "8578"
        string_val: "1073"
        string_val: "3699"
        string_val: "4741"
        string_val: "2788"
        string_val: "6509"
        string_val: "7289"
        string_val: "4255"
        string_val: "6098"
        string_val: "2119"
        string_val: "9536"
        string_val: "4261"
        string_val: "9036"
        string_val: "4319"
        string_val: "8560"
        string_val: "9370"
        string_val: "6110"
        string_val: "9516"
        string_val: "973"
        string_val: "7855"
        string_val: "3972"
        string_val: "9383"
        string_val: "33"
        string_val: "2115"
        string_val: "8435"
        string_val: "138"
        string_val: "3274"
        string_val: "2227"
        string_val: "4353"
        string_val: "9894"
        string_val: "7929"
        string_val: "2493"
        string_val: "9826"
        string_val: "2073"
        string_val: "7110"
        string_val: "9241"
        string_val: "1240"
        string_val: "5590"
        string_val: "3909"
        string_val: "8289"
        string_val: "8347"
        string_val: "7859"
        string_val: "7829"
        string_val: "7024"
        string_val: "1105"
        string_val: "7472"
        string_val: "9097"
        string_val: "1619"
        string_val: "1394"
        string_val: "1704"
        string_val: "258"
        string_val: "7646"
        string_val: "6101"
        string_val: "8451"
        string_val: "1290"
        string_val: "6596"
        string_val: "2728"
        string_val: "4921"
        string_val: "4289"
        string_val: "9434"
        string_val: "8835"
        string_val: "2242"
        string_val: "3401"
        string_val: "6677"
        string_val: "8669"
        string_val: "7365"
        string_val: "5392"
        string_val: "3621"
        string_val: "3257"
        string_val: "1774"
        string_val: "9264"
        string_val: "2336"
        string_val: "511"
        string_val: "1302"
        string_val: "3275"
        string_val: "2792"
        string_val: "5856"
        string_val: "9675"
        string_val: "245"
        string_val: "944"
        string_val: "3378"
        string_val: "6845"
        string_val: "6250"
        string_val: "7293"
        string_val: "2039"
        string_val: "9052"
        string_val: "9519"
        string_val: "5555"
        string_val: "5534"
        string_val: "8831"
        string_val: "1416"
        string_val: "3377"
        string_val: "4734"
        string_val: "2798"
        string_val: "8776"
        string_val: "4996"
        string_val: "8806"
        string_val: "2614"
        string_val: "616"
        string_val: "1648"
        string_val: "7397"
        string_val: "1945"
        string_val: "6607"
        string_val: "9564"
        string_val: "3230"
        string_val: "5490"
        string_val: "417"
        string_val: "3999"
        string_val: "6485"
        string_val: "3504"
        string_val: "8863"
        string_val: "3517"
        string_val: "2445"
        string_val: "5813"
        string_val: "5179"
        string_val: "4553"
        string_val: "768"
        string_val: "1617"
        string_val: "595"
        string_val: "6674"
        string_val: "6726"
        string_val: "589"
        string_val: "6713"
        string_val: "2601"
        string_val: "6732"
        string_val: "5212"
        string_val: "4782"
        string_val: "853"
        string_val: "6199"
        string_val: "4608"
        string_val: "1259"
        string_val: "2431"
        string_val: "9426"
        string_val: "301"
        string_val: "7192"
        string_val: "198"
        string_val: "4260"
        string_val: "8736"
        string_val: "8687"
        string_val: "3585"
        string_val: "3266"
        string_val: "3696"
        string_val: "2420"
        string_val: "1383"
        string_val: "3329"
        string_val: "8889"
        string_val: "247"
        string_val: "4699"
        string_val: "5710"
        string_val: "3614"
        string_val: "6338"
        string_val: "398"
        string_val: "654"
        string_val: "1615"
        string_val: "1076"
        string_val: "4978"
        string_val: "4558"
        string_val: "4254"
        string_val: "4989"
        string_val: "8706"
        string_val: "2659"
        string_val: "665"
        string_val: "3346"
        string_val: "8114"
        string_val: "7634"
        string_val: "8370"
        string_val: "3221"
        string_val: "4456"
        string_val: "327"
        string_val: "35"
        string_val: "2579"
        string_val: "1816"
        string_val: "5938"
        string_val: "6798"
        string_val: "1411"
        string_val: "3399"
        string_val: "9156"
        string_val: "5195"
        string_val: "7643"
        string_val: "2488"
        string_val: "6921"
        string_val: "2036"
        string_val: "7482"
        string_val: "8519"
        string_val: "36"
        string_val: "9218"
        string_val: "1997"
        string_val: "1547"
        string_val: "5680"
        string_val: "3586"
        string_val: "794"
        string_val: "8078"
        string_val: "7668"
        string_val: "1656"
        string_val: "5200"
        string_val: "841"
        string_val: "6059"
        string_val: "333"
        string_val: "2611"
        string_val: "8952"
        string_val: "9604"
        string_val: "9783"
        string_val: "9860"
        string_val: "6298"
        string_val: "3422"
        string_val: "9531"
        string_val: "7090"
        string_val: "1371"
        string_val: "7543"
        string_val: "2704"
        string_val: "3763"
        string_val: "8807"
        string_val: "1229"
        string_val: "9366"
        string_val: "711"
        string_val: "7707"
        string_val: "2502"
        string_val: "7504"
        string_val: "5801"
        string_val: "6295"
        string_val: "9376"
        string_val: "2150"
        string_val: "2768"
        string_val: "5721"
        string_val: "1182"
        string_val: "9700"
        string_val: "6576"
        string_val: "7761"
        string_val: "6435"
        string_val: "709"
        string_val: "8850"
        string_val: "8787"
        string_val: "6985"
        string_val: "3616"
        string_val: "4468"
        string_val: "6964"
        string_val: "1873"
        string_val: "8778"
        string_val: "6897"
        string_val: "1424"
        string_val: "1886"
        string_val: "3323"
        string_val: "5269"
        string_val: "6503"
        string_val: "6166"
        string_val: "1532"
        string_val: "1219"
        string_val: "7211"
        string_val: "5771"
        string_val: "3415"
        string_val: "777"
        string_val: "5637"
        string_val: "4876"
        string_val: "6866"
        string_val: "5595"
        string_val: "6609"
        string_val: "2671"
        string_val: "3908"
        string_val: "9141"
        string_val: "5894"
        string_val: "261"
        string_val: "1084"
        string_val: "9152"
        string_val: "1025"
        string_val: "591"
        string_val: "5920"
        string_val: "6835"
        string_val: "4986"
        string_val: "9972"
        string_val: "8176"
        string_val: "7664"
        string_val: "3308"
        string_val: "831"
        string_val: "3583"
        string_val: "6464"
        string_val: "6856"
        string_val: "9479"
        string_val: "7497"
        string_val: "9572"
        string_val: "1685"
        string_val: "2782"
        string_val: "1780"
        string_val: "3879"
        string_val: "5330"
        string_val: "8061"
        string_val: "8087"
        string_val: "596"
        string_val: "4338"
        string_val: "2591"
        string_val: "5005"
        string_val: "6693"
        string_val: "6717"
        string_val: "9746"
        string_val: "3824"
        string_val: "1643"
        string_val: "1998"
        string_val: "7334"
        string_val: "6336"
        string_val: "900"
        string_val: "77"
        string_val: "7433"
        string_val: "2689"
        string_val: "8660"
        string_val: "6973"
        string_val: "3836"
        string_val: "3596"
        string_val: "9721"
        string_val: "842"
        string_val: "2153"
        string_val: "119"
        string_val: "3624"
        string_val: "4369"
        string_val: "92"
        string_val: "6255"
        string_val: "8366"
        string_val: "2231"
        string_val: "8088"
        string_val: "4677"
        string_val: "6679"
        string_val: "9498"
        string_val: "5422"
        string_val: "4682"
        string_val: "7129"
        string_val: "9127"
        string_val: "50"
        string_val: "2343"
        string_val: "5316"
        string_val: "6172"
        string_val: "8452"
        string_val: "8051"
        string_val: "9422"
        string_val: "1272"
        string_val: "2763"
        string_val: "5002"
        string_val: "696"
        string_val: "6919"
        string_val: "2410"
        string_val: "807"
        string_val: "1574"
        string_val: "8707"
        string_val: "9737"
        string_val: "8829"
        string_val: "2613"
        string_val: "9552"
        string_val: "3830"
        string_val: "9416"
        string_val: "2577"
        string_val: "2130"
        string_val: "8264"
        string_val: "7387"
        string_val: "6504"
        string_val: "9457"
        string_val: "9945"
        string_val: "3895"
        string_val: "9977"
        string_val: "189"
        string_val: "9585"
        string_val: "3801"
        string_val: "3000"
        string_val: "5018"
        string_val: "7208"
        string_val: "9925"
        string_val: "82"
        string_val: "929"
        string_val: "1642"
        string_val: "2500"
        string_val: "3694"
        string_val: "8379"
        string_val: "9890"
        string_val: "7592"
        string_val: "2114"
        string_val: "2377"
        string_val: "5909"
        string_val: "7190"
        string_val: "4524"
        string_val: "2761"
        string_val: "4366"
        string_val: "5645"
        string_val: "2348"
        string_val: "1501"
        string_val: "5277"
        string_val: "1992"
        string_val: "7857"
        string_val: "5130"
        string_val: "5317"
        string_val: "5102"
        string_val: "1540"
        string_val: "3793"
        string_val: "2461"
        string_val: "1312"
        string_val: "5163"
        string_val: "425"
        string_val: "463"
        string_val: "9684"
        string_val: "1432"
        string_val: "4816"
        string_val: "2220"
        string_val: "4972"
        string_val: "1588"
        string_val: "7031"
        string_val: "4306"
        string_val: "2824"
        string_val: "336"
        string_val: "1139"
        string_val: "8126"
        string_val: "9430"
        string_val: "7281"
        string_val: "7816"
        string_val: "5483"
        string_val: "2864"
        string_val: "7339"
        string_val: "5010"
        string_val: "7589"
        string_val: "4209"
        string_val: "7751"
        string_val: "3993"
        string_val: "1166"
        string_val: "3350"
        string_val: "1807"
        string_val: "5671"
        string_val: "4664"
        string_val: "1094"
        string_val: "4949"
        string_val: "3428"
        string_val: "8004"
        string_val: "7217"
        string_val: "8157"
        string_val: "118"
        string_val: "9532"
        string_val: "7588"
        string_val: "488"
        string_val: "9303"
        string_val: "2217"
        string_val: "6950"
        string_val: "4180"
        string_val: "1790"
        string_val: "208"
        string_val: "5814"
        string_val: "4388"
        string_val: "9410"
        string_val: "4298"
        string_val: "5428"
        string_val: "2804"
        string_val: "5498"
        string_val: "1152"
        string_val: "1037"
        string_val: "499"
        string_val: "1631"
        string_val: "3362"
        string_val: "3739"
        string_val: "485"
        string_val: "3222"
        string_val: "7413"
        string_val: "637"
        string_val: "838"
        string_val: "3268"
        string_val: "553"
        string_val: "7396"
        string_val: "2035"
        string_val: "4377"
        string_val: "6251"
        string_val: "7536"
        string_val: "4463"
        string_val: "5065"
        string_val: "9362"
        string_val: "9877"
        string_val: "6008"
        string_val: "5690"
        string_val: "7672"
        string_val: "1810"
        string_val: "6005"
        string_val: "8496"
        string_val: "8741"
        string_val: "9439"
        string_val: "3282"
        string_val: "9265"
        string_val: "2465"
        string_val: "2049"
        string_val: "1160"
        string_val: "9179"
        string_val: "7492"
        string_val: "9954"
        string_val: "6776"
        string_val: "7487"
        string_val: "3348"
        string_val: "5249"
        string_val: "5566"
        string_val: "357"
        string_val: "5964"
        string_val: "1322"
        string_val: "6915"
        string_val: "4063"
        string_val: "7292"
        string_val: "3671"
        string_val: "8567"
        string_val: "8797"
        string_val: "6310"
        string_val: "648"
        string_val: "7952"
        string_val: "3874"
        string_val: "3071"
        string_val: "2998"
        string_val: "3957"
        string_val: "1936"
        string_val: "5159"
        string_val: "3117"
        string_val: "4370"
        string_val: "5171"
        string_val: "1148"
        string_val: "7193"
        string_val: "428"
        string_val: "3473"
        string_val: "1122"
        string_val: "4174"
        string_val: "7011"
        string_val: "2754"
        string_val: "8329"
        string_val: "9567"
        string_val: "4136"
        string_val: "1573"
        string_val: "1651"
        string_val: "1552"
        string_val: "8535"
        string_val: "9595"
        string_val: "25"
        string_val: "1726"
        string_val: "6111"
        string_val: "2712"
        string_val: "1463"
        string_val: "4176"
        string_val: "3750"
        string_val: "8071"
        string_val: "7335"
        string_val: "5694"
        string_val: "7311"
        string_val: "7175"
        string_val: "210"
        string_val: "8836"
        string_val: "385"
        string_val: "5003"
        string_val: "1564"
        string_val: "9095"
        string_val: "4049"
        string_val: "1861"
        string_val: "6886"
        string_val: "727"
        string_val: "4621"
        string_val: "4068"
        string_val: "1419"
        string_val: "7927"
        string_val: "6511"
        string_val: "8297"
        string_val: "6821"
        string_val: "8826"
        string_val: "8940"
        string_val: "1607"
        string_val: "1546"
        string_val: "8135"
        string_val: "9499"
        string_val: "3179"
        string_val: "4901"
        string_val: "6346"
        string_val: "2737"
        string_val: "9603"
        string_val: "7184"
        string_val: "5768"
        string_val: "6366"
        string_val: "9722"
        string_val: "590"
        string_val: "7021"
        string_val: "5744"
        string_val: "6853"
        string_val: "8549"
        string_val: "4485"
        string_val: "5734"
        string_val: "1017"
        string_val: "8250"
        string_val: "1783"
        string_val: "4408"
        string_val: "4717"
        string_val: "1764"
        string_val: "9839"
        string_val: "7567"
        string_val: "8104"
        string_val: "9092"
        string_val: "6779"
        string_val: "8220"
        string_val: "6605"
        string_val: "7086"
        string_val: "9623"
        string_val: "5431"
        string_val: "4688"
        string_val: "8906"
        string_val: "9445"
        string_val: "5542"
        string_val: "9478"
        string_val: "3863"
        string_val: "6494"
        string_val: "7770"
        string_val: "5526"
        string_val: "4465"
        string_val: "7372"
        string_val: "839"
        string_val: "986"
        string_val: "9271"
        string_val: "8077"
        string_val: "6201"
        string_val: "5765"
        string_val: "1467"
        string_val: "7983"
        string_val: "1478"
        string_val: "7943"
        string_val: "2537"
        string_val: "9287"
        string_val: "1869"
        string_val: "3843"
        string_val: "4755"
        string_val: "9067"
        string_val: "6898"
        string_val: "2853"
        string_val: "3466"
        string_val: "6708"
        string_val: "7602"
        string_val: "7611"
        string_val: "4624"
        string_val: "4931"
        string_val: "8360"
        string_val: "7113"
        string_val: "3519"
        string_val: "682"
        string_val: "4452"
        string_val: "9418"
        string_val: "832"
        string_val: "3870"
        string_val: "1144"
        string_val: "5910"
        string_val: "1210"
        string_val: "2193"
        string_val: "8824"
        string_val: "8630"
        string_val: "4244"
        string_val: "9463"
        string_val: "5465"
        string_val: "3094"
        string_val: "3818"
        string_val: "4893"
        string_val: "6239"
        string_val: "8023"
        string_val: "7665"
        string_val: "53"
        string_val: "6351"
        string_val: "1422"
        string_val: "9354"
        string_val: "1195"
        string_val: "9310"
        string_val: "3351"
        string_val: "7944"
        string_val: "5538"
        string_val: "2617"
        string_val: "9922"
        string_val: "8857"
        string_val: "5472"
        string_val: "6541"
        string_val: "9781"
        string_val: "1395"
        string_val: "2685"
        string_val: "3203"
        string_val: "2316"
        string_val: "7367"
        string_val: "771"
        string_val: "8524"
        string_val: "2099"
        string_val: "9586"
        string_val: "4497"
        string_val: "5054"
        string_val: "6063"
        string_val: "5565"
        string_val: "393"
        string_val: "3930"
        string_val: "8346"
        string_val: "2302"
        string_val: "5993"
        string_val: "856"
        string_val: "6256"
        string_val: "2963"
        string_val: "1440"
        string_val: "8141"
        string_val: "2651"
        string_val: "8461"
        string_val: "9476"
        string_val: "2722"
        string_val: "7345"
        string_val: "5923"
        string_val: "7421"
        string_val: "1284"
        string_val: "6132"
        string_val: "7066"
        string_val: "948"
        string_val: "1028"
        string_val: "3051"
        string_val: "931"
        string_val: "6969"
        string_val: "574"
        string_val: "166"
        string_val: "212"
        string_val: "1392"
        string_val: "2811"
        string_val: "5888"
        string_val: "7510"
        string_val: "142"
        string_val: "1049"
        string_val: "3030"
        string_val: "7940"
        string_val: "8653"
        string_val: "2592"
        string_val: "8165"
        string_val: "8525"
        string_val: "2411"
        string_val: "3389"
        string_val: "8758"
        string_val: "1853"
        string_val: "1827"
        string_val: "8457"
        string_val: "3122"
        string_val: "5041"
        string_val: "1155"
        string_val: "5454"
        string_val: "9991"
        string_val: "283"
        string_val: "9300"
        string_val: "8047"
        string_val: "9317"
        string_val: "1695"
        string_val: "9867"
        string_val: "9736"
        string_val: "3299"
        string_val: "2277"
        string_val: "4350"
        string_val: "1397"
        string_val: "8015"
        string_val: "3014"
        string_val: "4491"
        string_val: "8967"
        string_val: "5642"
        string_val: "7623"
        string_val: "5194"
        string_val: "2546"
        string_val: "3753"
        string_val: "1281"
        string_val: "8843"
        string_val: "3533"
        string_val: "9868"
        string_val: "2598"
        string_val: "2061"
        string_val: "8953"
        string_val: "7856"
        string_val: "6424"
        string_val: "1064"
        string_val: "7520"
        string_val: "5843"
        string_val: "6271"
        string_val: "1398"
        string_val: "2433"
        string_val: "8544"
        string_val: "1856"
        string_val: "3366"
        string_val: "7374"
        string_val: "1437"
        string_val: "2715"
        string_val: "3151"
        string_val: "6622"
        string_val: "6536"
        string_val: "6123"
        string_val: "2081"
        string_val: "3090"
        string_val: "7123"
        string_val: "9856"
        string_val: "8132"
        string_val: "9046"
        string_val: "5086"
        string_val: "2182"
        string_val: "8579"
        string_val: "9701"
        string_val: "1069"
        string_val: "1693"
        string_val: "7728"
        string_val: "2809"
        string_val: "7975"
        string_val: "4444"
        string_val: "9334"
        string_val: "5708"
        string_val: "1715"
        string_val: "2360"
        string_val: "4929"
        string_val: "5111"
        string_val: "125"
        string_val: "3423"
        string_val: "8395"
        string_val: "7916"
        string_val: "3784"
        string_val: "7523"
        string_val: "3958"
        string_val: "4363"
        string_val: "1824"
        string_val: "7014"
        string_val: "6860"
        string_val: "7366"
        string_val: "3965"
        string_val: "1471"
        string_val: "958"
        string_val: "2892"
        string_val: "2697"
        string_val: "3804"
        string_val: "9399"
        string_val: "3499"
        string_val: "3667"
        string_val: "3702"
        string_val: "5545"
        string_val: "4330"
        string_val: "6187"
        string_val: "2769"
        string_val: "1358"
        string_val: "1014"
        string_val: "4225"
        string_val: "392"
        string_val: "4362"
        string_val: "4287"
        string_val: "9467"
        string_val: "4603"
        string_val: "6323"
        string_val: "2570"
        string_val: "6229"
        string_val: "9477"
        string_val: "4736"
        string_val: "2978"
        string_val: "1604"
        string_val: "7986"
        string_val: "217"
        string_val: "2460"
        string_val: "4414"
        string_val: "5027"
        string_val: "8064"
        string_val: "7581"
        string_val: "1970"
        string_val: "7052"
        string_val: "4999"
        string_val: "1612"
        string_val: "6345"
        string_val: "312"
        string_val: "3175"
        string_val: "4010"
        string_val: "3649"
        string_val: "3057"
        string_val: "4502"
        string_val: "2458"
        string_val: "8896"
        string_val: "6863"
        string_val: "8177"
…
    value {
      list {
        shape {
        }
      }
    }
  }
  attr {
    key: "dtype"
    value {
      type: DT_FLOAT
    }
  }
}
node {
  name: "report_uninitialized_variables/IsVariableInitialized_55"
  op: "IsVariableInitialized"
  input: "optimizer_loss/CONV/conv_2/BatchNorm/gamma/Adam_1"
  attr {
    key: "_class"
    value {
      list {
        s: "loc:@CONV/conv_2/BatchNorm/gamma"
      }
    }
  }
  attr {
    key: "_output_shapes"
    value {
      list {
        shape {
        }
      }
    }
  }
  attr {
    key: "dtype"
    value {
      type: DT_FLOAT
    }
  }
}
node {
  name: "report_uninitialized_variables/IsVariableInitialized_56"
  op: "IsVariableInitialized"
  input: "optimizer_loss/CONV/conv_3/w/Adam"
  attr {
    key: "_class"
    value {
      list {
        s: "loc:@CONV/conv_3/w"
      }
    }
  }
  attr {
    key: "_output_shapes"
    value {
      list {
        shape {
        }
      }
    }
  }
  attr {
    key: "dtype"
    value {
      type: DT_FLOAT
    }
  }
}
node {
  name: "report_uninitialized_variables/IsVariableInitialized_57"
  op: "IsVariableInitialized"
  input: "optimizer_loss/CONV/conv_3/w/Adam_1"
  attr {
    key: "_class"
    value {
      list {
        s: "loc:@CONV/conv_3/w"
      }
    }
  }
  attr {
    key: "_output_shapes"
    value {
      list {
        shape {
        }
      }
    }
  }
  attr {
    key: "dtype"
    value {
      type: DT_FLOAT
    }
  }
}
node {
  name: "report_uninitialized_variables/IsVariableInitialized_58"
  op: "IsVariableInitialized"
  input: "optimizer_loss/CONV/conv_3/biases/Adam"
  attr {
    key: "_class"
    value {
      list {
        s: "loc:@CONV/conv_3/biases"
      }
    }
  }
  attr {
    key: "_output_shapes"
    value {
      list {
        shape {
        }
      }
    }
  }
  attr {
    key: "dtype"
    value {
      type: DT_FLOAT
    }
  }
}
node {
  name: "report_uninitialized_variables/IsVariableInitialized_59"
  op: "IsVariableInitialized"
  input: "optimizer_loss/CONV/conv_3/biases/Adam_1"
  attr {
    key: "_class"
    value {
      list {
        s: "loc:@CONV/conv_3/biases"
      }
    }
  }
  attr {
    key: "_output_shapes"
    value {
      list {
        shape {
        }
      }
    }
  }
  attr {
    key: "dtype"
    value {
      type: DT_FLOAT
    }
  }
}
node {
  name: "report_uninitialized_variables/IsVariableInitialized_60"
  op: "IsVariableInitialized"
  input: "optimizer_loss/CONV/conv_3/BatchNorm/beta/Adam"
  attr {
    key: "_class"
    value {
      list {
        s: "loc:@CONV/conv_3/BatchNorm/beta"
      }
    }
  }
  attr {
    key: "_output_shapes"
    value {
      list {
        shape {
        }
      }
    }
  }
  attr {
    key: "dtype"
    value {
      type: DT_FLOAT
    }
  }
}
node {
  name: "report_uninitialized_variables/IsVariableInitialized_61"
  op: "IsVariableInitialized"
  input: "optimizer_loss/CONV/conv_3/BatchNorm/beta/Adam_1"
  attr {
    key: "_class"
    value {
      list {
        s: "loc:@CONV/conv_3/BatchNorm/beta"
      }
    }
  }
  attr {
    key: "_output_shapes"
    value {
      list {
        shape {
        }
      }
    }
  }
  attr {
    key: "dtype"
    value {
      type: DT_FLOAT
    }
  }
}
node {
  name: "report_uninitialized_variables/IsVariableInitialized_62"
  op: "IsVariableInitialized"
  input: "optimizer_loss/CONV/conv_3/BatchNorm/gamma/Adam"
  attr {
    key: "_class"
    value {
      list {
        s: "loc:@CONV/conv_3/BatchNorm/gamma"
      }
    }
  }
  attr {
    key: "_output_shapes"
    value {
      list {
        shape {
        }
      }
    }
  }
  attr {
    key: "dtype"
    value {
      type: DT_FLOAT
    }
  }
}
node {
  name: "report_uninitialized_variables/IsVariableInitialized_63"
  op: "IsVariableInitialized"
  input: "optimizer_loss/CONV/conv_3/BatchNorm/gamma/Adam_1"
  attr {
    key: "_class"
    value {
      list {
        s: "loc:@CONV/conv_3/BatchNorm/gamma"
      }
    }
  }
  attr {
    key: "_output_shapes"
    value {
      list {
        shape {
        }
      }
    }
  }
  attr {
    key: "dtype"
    value {
      type: DT_FLOAT
    }
  }
}
node {
  name: "report_uninitialized_variables/IsVariableInitialized_64"
  op: "IsVariableInitialized"
  input: "optimizer_loss/CONV/conv_4/w/Adam"
  attr {
    key: "_class"
    value {
      list {
        s: "loc:@CONV/conv_4/w"
      }
    }
  }
  attr {
    key: "_output_shapes"
    value {
      list {
        shape {
        }
      }
    }
  }
  attr {
    key: "dtype"
    value {
      type: DT_FLOAT
    }
  }
}
node {
  name: "report_uninitialized_variables/IsVariableInitialized_65"
  op: "IsVariableInitialized"
  input: "optimizer_loss/CONV/conv_4/w/Adam_1"
  attr {
    key: "_class"
    value {
      list {
        s: "loc:@CONV/conv_4/w"
      }
    }
  }
  attr {
    key: "_output_shapes"
    value {
      list {
        shape {
        }
      }
    }
  }
  attr {
    key: "dtype"
    value {
      type: DT_FLOAT
    }
  }
}
node {
  name: "report_uninitialized_variables/IsVariableInitialized_66"
  op: "IsVariableInitialized"
  input: "optimizer_loss/CONV/conv_4/biases/Adam"
  attr {
    key: "_class"
    value {
      list {
        s: "loc:@CONV/conv_4/biases"
      }
    }
  }
  attr {
    key: "_output_shapes"
    value {
      list {
        shape {
        }
      }
    }
  }
  attr {
    key: "dtype"
    value {
      type: DT_FLOAT
    }
  }
}
node {
  name: "report_uninitialized_variables/IsVariableInitialized_67"
  op: "IsVariableInitialized"
  input: "optimizer_loss/CONV/conv_4/biases/Adam_1"
  attr {
    key: "_class"
    value {
      list {
        s: "loc:@CONV/conv_4/biases"
      }
    }
  }
  attr {
    key: "_output_shapes"
    value {
      list {
        shape {
        }
      }
    }
  }
  attr {
    key: "dtype"
    value {
      type: DT_FLOAT
    }
  }
}
node {
  name: "report_uninitialized_variables/IsVariableInitialized_68"
  op: "IsVariableInitialized"
  input: "optimizer_loss/CONV/conv_4/BatchNorm/beta/Adam"
  attr {
    key: "_class"
    value {
      list {
        s: "loc:@CONV/conv_4/BatchNorm/beta"
      }
    }
  }
  attr {
    key: "_output_shapes"
    value {
      list {
        shape {
        }
      }
    }
  }
  attr {
    key: "dtype"
    value {
      type: DT_FLOAT
    }
  }
}
node {
  name: "report_uninitialized_variables/IsVariableInitialized_69"
  op: "IsVariableInitialized"
  input: "optimizer_loss/CONV/conv_4/BatchNorm/beta/Adam_1"
  attr {
    key: "_class"
    value {
      list {
        s: "loc:@CONV/conv_4/BatchNorm/beta"
      }
    }
  }
  attr {
    key: "_output_shapes"
    value {
      list {
        shape {
        }
      }
    }
  }
  attr {
    key: "dtype"
    value {
      type: DT_FLOAT
    }
  }
}
node {
  name: "report_uninitialized_variables/IsVariableInitialized_70"
  op: "IsVariableInitialized"
  input: "optimizer_loss/CONV/conv_4/BatchNorm/gamma/Adam"
  attr {
    key: "_class"
    value {
      list {
        s: "loc:@CONV/conv_4/BatchNorm/gamma"
      }
    }
  }
  attr {
    key: "_output_shapes"
    value {
      list {
        shape {
        }
      }
    }
  }
  attr {
    key: "dtype"
    value {
      type: DT_FLOAT
    }
  }
}
node {
  name: "report_uninitialized_variables/IsVariableInitialized_71"
  op: "IsVariableInitialized"
  input: "optimizer_loss/CONV/conv_4/BatchNorm/gamma/Adam_1"
  attr {
    key: "_class"
    value {
      list {
        s: "loc:@CONV/conv_4/BatchNorm/gamma"
      }
    }
  }
  attr {
    key: "_output_shapes"
    value {
      list {
        shape {
        }
      }
    }
  }
  attr {
    key: "dtype"
    value {
      type: DT_FLOAT
    }
  }
}
node {
  name: "report_uninitialized_variables/IsVariableInitialized_72"
  op: "IsVariableInitialized"
  input: "optimizer_loss/CONV/fully_connected/weights/Adam"
  attr {
    key: "_class"
    value {
      list {
        s: "loc:@CONV/fully_connected/weights"
      }
    }
  }
  attr {
    key: "_output_shapes"
    value {
      list {
        shape {
        }
      }
    }
  }
  attr {
    key: "dtype"
    value {
      type: DT_FLOAT
    }
  }
}
node {
  name: "report_uninitialized_variables/IsVariableInitialized_73"
  op: "IsVariableInitialized"
  input: "optimizer_loss/CONV/fully_connected/weights/Adam_1"
  attr {
    key: "_class"
    value {
      list {
        s: "loc:@CONV/fully_connected/weights"
      }
    }
  }
  attr {
    key: "_output_shapes"
    value {
      list {
        shape {
        }
      }
    }
  }
  attr {
    key: "dtype"
    value {
      type: DT_FLOAT
    }
  }
}
node {
  name: "report_uninitialized_variables/IsVariableInitialized_74"
  op: "IsVariableInitialized"
  input: "optimizer_loss/CONV/fully_connected/biases/Adam"
  attr {
    key: "_class"
    value {
      list {
        s: "loc:@CONV/fully_connected/biases"
      }
    }
  }
  attr {
    key: "_output_shapes"
    value {
      list {
        shape {
        }
      }
    }
  }
  attr {
    key: "dtype"
    value {
      type: DT_FLOAT
    }
  }
}
node {
  name: "report_uninitialized_variables/IsVariableInitialized_75"
  op: "IsVariableInitialized"
  input: "optimizer_loss/CONV/fully_connected/biases/Adam_1"
  attr {
    key: "_class"
    value {
      list {
        s: "loc:@CONV/fully_connected/biases"
      }
    }
  }
  attr {
    key: "_output_shapes"
    value {
      list {
        shape {
        }
      }
    }
  }
  attr {
    key: "dtype"
    value {
      type: DT_FLOAT
    }
  }
}
node {
  name: "report_uninitialized_variables/IsVariableInitialized_76"
  op: "IsVariableInitialized"
  input: "optimizer_loss/CONV/fully_connected_1/weights/Adam"
  attr {
    key: "_class"
    value {
      list {
        s: "loc:@CONV/fully_connected_1/weights"
      }
    }
  }
  attr {
    key: "_output_shapes"
    value {
      list {
        shape {
        }
      }
    }
  }
  attr {
    key: "dtype"
    value {
      type: DT_FLOAT
    }
  }
}
node {
  name: "report_uninitialized_variables/IsVariableInitialized_77"
  op: "IsVariableInitialized"
  input: "optimizer_loss/CONV/fully_connected_1/weights/Adam_1"
  attr {
    key: "_class"
    value {
      list {
        s: "loc:@CONV/fully_connected_1/weights"
      }
    }
  }
  attr {
    key: "_output_shapes"
    value {
      list {
        shape {
        }
      }
    }
  }
  attr {
    key: "dtype"
    value {
      type: DT_FLOAT
    }
  }
}
node {
  name: "report_uninitialized_variables/IsVariableInitialized_78"
  op: "IsVariableInitialized"
  input: "optimizer_loss/CONV/fully_connected_1/biases/Adam"
  attr {
    key: "_class"
    value {
      list {
        s: "loc:@CONV/fully_connected_1/biases"
      }
    }
  }
  attr {
    key: "_output_shapes"
    value {
      list {
        shape {
        }
      }
    }
  }
  attr {
    key: "dtype"
    value {
      type: DT_FLOAT
    }
  }
}
node {
  name: "report_uninitialized_variables/IsVariableInitialized_79"
  op: "IsVariableInitialized"
  input: "optimizer_loss/CONV/fully_connected_1/biases/Adam_1"
  attr {
    key: "_class"
    value {
      list {
        s: "loc:@CONV/fully_connected_1/biases"
      }
    }
  }
  attr {
    key: "_output_shapes"
    value {
      list {
        shape {
        }
      }
    }
  }
  attr {
    key: "dtype"
    value {
      type: DT_FLOAT
    }
  }
}
node {
  name: "report_uninitialized_variables/IsVariableInitialized_80"
  op: "IsVariableInitialized"
  input: "optimizer_loss/CONV/fully_connected_2/weights/Adam"
  attr {
    key: "_class"
    value {
      list {
        s: "loc:@CONV/fully_connected_2/weights"
      }
    }
  }
  attr {
    key: "_output_shapes"
    value {
      list {
        shape {
        }
      }
    }
  }
  attr {
    key: "dtype"
    value {
      type: DT_FLOAT
    }
  }
}
node {
  name: "report_uninitialized_variables/IsVariableInitialized_81"
  op: "IsVariableInitialized"
  input: "optimizer_loss/CONV/fully_connected_2/weights/Adam_1"
  attr {
    key: "_class"
    value {
      list {
        s: "loc:@CONV/fully_connected_2/weights"
      }
    }
  }
  attr {
    key: "_output_shapes"
    value {
      list {
        shape {
        }
      }
    }
  }
  attr {
    key: "dtype"
    value {
      type: DT_FLOAT
    }
  }
}
node {
  name: "report_uninitialized_variables/IsVariableInitialized_82"
  op: "IsVariableInitialized"
  input: "optimizer_loss/CONV/fully_connected_2/biases/Adam"
  attr {
    key: "_class"
    value {
      list {
        s: "loc:@CONV/fully_connected_2/biases"
      }
    }
  }
  attr {
    key: "_output_shapes"
    value {
      list {
        shape {
        }
      }
    }
  }
  attr {
    key: "dtype"
    value {
      type: DT_FLOAT
    }
  }
}
node {
  name: "report_uninitialized_variables/IsVariableInitialized_83"
  op: "IsVariableInitialized"
  input: "optimizer_loss/CONV/fully_connected_2/biases/Adam_1"
  attr {
    key: "_class"
    value {
      list {
        s: "loc:@CONV/fully_connected_2/biases"
      }
    }
  }
  attr {
    key: "_output_shapes"
    value {
      list {
        shape {
        }
      }
    }
  }
  attr {
    key: "dtype"
    value {
      type: DT_FLOAT
    }
  }
}
node {
  name: "report_uninitialized_variables/IsVariableInitialized_84"
  op: "IsVariableInitialized"
  input: "optimizer_loss/f_phi/fully_connected/weights/Adam"
  attr {
    key: "_class"
    value {
      list {
        s: "loc:@f_phi/fully_connected/weights"
      }
    }
  }
  attr {
    key: "_output_shapes"
    value {
      list {
        shape {
        }
      }
    }
  }
  attr {
    key: "dtype"
    value {
      type: DT_FLOAT
    }
  }
}
node {
  name: "report_uninitialized_variables/IsVariableInitialized_85"
  op: "IsVariableInitialized"
  input: "optimizer_loss/f_phi/fully_connected/weights/Adam_1"
  attr {
    key: "_class"
    value {
      list {
        s: "loc:@f_phi/fully_connected/weights"
      }
    }
  }
  attr {
    key: "_output_shapes"
    value {
      list {
        shape {
        }
      }
    }
  }
  attr {
    key: "dtype"
    value {
      type: DT_FLOAT
    }
  }
}
node {
  name: "report_uninitialized_variables/IsVariableInitialized_86"
  op: "IsVariableInitialized"
  input: "optimizer_loss/f_phi/fully_connected/biases/Adam"
  attr {
    key: "_class"
    value {
      list {
        s: "loc:@f_phi/fully_connected/biases"
      }
    }
  }
  attr {
    key: "_output_shapes"
    value {
      list {
        shape {
        }
      }
    }
  }
  attr {
    key: "dtype"
    value {
      type: DT_FLOAT
    }
  }
}
node {
  name: "report_uninitialized_variables/IsVariableInitialized_87"
  op: "IsVariableInitialized"
  input: "optimizer_loss/f_phi/fully_connected/biases/Adam_1"
  attr {
    key: "_class"
    value {
      list {
        s: "loc:@f_phi/fully_connected/biases"
      }
    }
  }
  attr {
    key: "_output_shapes"
    value {
      list {
        shape {
        }
      }
    }
  }
  attr {
    key: "dtype"
    value {
      type: DT_FLOAT
    }
  }
}
node {
  name: "report_uninitialized_variables/IsVariableInitialized_88"
  op: "IsVariableInitialized"
  input: "optimizer_loss/f_phi/fully_connected_1/weights/Adam"
  attr {
    key: "_class"
    value {
      list {
        s: "loc:@f_phi/fully_connected_1/weights"
      }
    }
  }
  attr {
    key: "_output_shapes"
    value {
      list {
        shape {
        }
      }
    }
  }
  attr {
    key: "dtype"
    value {
      type: DT_FLOAT
    }
  }
}
node {
  name: "report_uninitialized_variables/IsVariableInitialized_89"
  op: "IsVariableInitialized"
  input: "optimizer_loss/f_phi/fully_connected_1/weights/Adam_1"
  attr {
    key: "_class"
    value {
      list {
        s: "loc:@f_phi/fully_connected_1/weights"
      }
    }
  }
  attr {
    key: "_output_shapes"
    value {
      list {
        shape {
        }
      }
    }
  }
  attr {
    key: "dtype"
    value {
      type: DT_FLOAT
    }
  }
}
node {
  name: "report_uninitialized_variables/IsVariableInitialized_90"
  op: "IsVariableInitialized"
  input: "optimizer_loss/f_phi/fully_connected_1/biases/Adam"
  attr {
    key: "_class"
    value {
      list {
        s: "loc:@f_phi/fully_connected_1/biases"
      }
    }
  }
  attr {
    key: "_output_shapes"
    value {
      list {
        shape {
        }
      }
    }
  }
  attr {
    key: "dtype"
    value {
      type: DT_FLOAT
    }
  }
}
node {
  name: "report_uninitialized_variables/IsVariableInitialized_91"
  op: "IsVariableInitialized"
  input: "optimizer_loss/f_phi/fully_connected_1/biases/Adam_1"
  attr {
    key: "_class"
    value {
      list {
        s: "loc:@f_phi/fully_connected_1/biases"
      }
    }
  }
  attr {
    key: "_output_shapes"
    value {
      list {
        shape {
        }
      }
    }
  }
  attr {
    key: "dtype"
    value {
      type: DT_FLOAT
    }
  }
}
node {
  name: "report_uninitialized_variables/IsVariableInitialized_92"
  op: "IsVariableInitialized"
  input: "optimizer_loss/f_phi/fully_connected_2/weights/Adam"
  attr {
    key: "_class"
    value {
      list {
        s: "loc:@f_phi/fully_connected_2/weights"
      }
    }
  }
  attr {
    key: "_output_shapes"
    value {
      list {
        shape {
        }
      }
    }
  }
  attr {
    key: "dtype"
    value {
      type: DT_FLOAT
    }
  }
}
node {
  name: "report_uninitialized_variables/IsVariableInitialized_93"
  op: "IsVariableInitialized"
  input: "optimizer_loss/f_phi/fully_connected_2/weights/Adam_1"
  attr {
    key: "_class"
    value {
      list {
        s: "loc:@f_phi/fully_connected_2/weights"
      }
    }
  }
  attr {
    key: "_output_shapes"
    value {
      list {
        shape {
        }
      }
    }
  }
  attr {
    key: "dtype"
    value {
      type: DT_FLOAT
    }
  }
}
node {
  name: "report_uninitialized_variables/IsVariableInitialized_94"
  op: "IsVariableInitialized"
  input: "optimizer_loss/f_phi/fully_connected_2/biases/Adam"
  attr {
    key: "_class"
    value {
      list {
        s: "loc:@f_phi/fully_connected_2/biases"
      }
    }
  }
  attr {
    key: "_output_shapes"
    value {
      list {
        shape {
        }
      }
    }
  }
  attr {
    key: "dtype"
    value {
      type: DT_FLOAT
    }
  }
}
node {
  name: "report_uninitialized_variables/IsVariableInitialized_95"
  op: "IsVariableInitialized"
  input: "optimizer_loss/f_phi/fully_connected_2/biases/Adam_1"
  attr {
    key: "_class"
    value {
      list {
        s: "loc:@f_phi/fully_connected_2/biases"
      }
    }
  }
  attr {
    key: "_output_shapes"
    value {
      list {
        shape {
        }
      }
    }
  }
  attr {
    key: "dtype"
    value {
      type: DT_FLOAT
    }
  }
}
node {
  name: "report_uninitialized_variables/stack"
  op: "Pack"
  input: "report_uninitialized_variables/IsVariableInitialized"
  input: "report_uninitialized_variables/IsVariableInitialized_1"
  input: "report_uninitialized_variables/IsVariableInitialized_2"
  input: "report_uninitialized_variables/IsVariableInitialized_3"
  input: "report_uninitialized_variables/IsVariableInitialized_4"
  input: "report_uninitialized_variables/IsVariableInitialized_5"
  input: "report_uninitialized_variables/IsVariableInitialized_6"
  input: "report_uninitialized_variables/IsVariableInitialized_7"
  input: "report_uninitialized_variables/IsVariableInitialized_8"
  input: "report_uninitialized_variables/IsVariableInitialized_9"
  input: "report_uninitialized_variables/IsVariableInitialized_10"
  input: "report_uninitialized_variables/IsVariableInitialized_11"
  input: "report_uninitialized_variables/IsVariableInitialized_12"
  input: "report_uninitialized_variables/IsVariableInitialized_13"
  input: "report_uninitialized_variables/IsVariableInitialized_14"
  input: "report_uninitialized_variables/IsVariableInitialized_15"
  input: "report_uninitialized_variables/IsVariableInitialized_16"
  input: "report_uninitialized_variables/IsVariableInitialized_17"
  input: "report_uninitialized_variables/IsVariableInitialized_18"
  input: "report_uninitialized_variables/IsVariableInitialized_19"
  input: "report_uninitialized_variables/IsVariableInitialized_20"
  input: "report_uninitialized_variables/IsVariableInitialized_21"
  input: "report_uninitialized_variables/IsVariableInitialized_22"
  input: "report_uninitialized_variables/IsVariableInitialized_23"
  input: "report_uninitialized_variables/IsVariableInitialized_24"
  input: "report_uninitialized_variables/IsVariableInitialized_25"
  input: "report_uninitialized_variables/IsVariableInitialized_26"
  input: "report_uninitialized_variables/IsVariableInitialized_27"
  input: "report_uninitialized_variables/IsVariableInitialized_28"
  input: "report_uninitialized_variables/IsVariableInitialized_29"
  input: "report_uninitialized_variables/IsVariableInitialized_30"
  input: "report_uninitialized_variables/IsVariableInitialized_31"
  input: "report_uninitialized_variables/IsVariableInitialized_32"
  input: "report_uninitialized_variables/IsVariableInitialized_33"
  input: "report_uninitialized_variables/IsVariableInitialized_34"
  input: "report_uninitialized_variables/IsVariableInitialized_35"
  input: "report_uninitialized_variables/IsVariableInitialized_36"
  input: "report_uninitialized_variables/IsVariableInitialized_37"
  input: "report_uninitialized_variables/IsVariableInitialized_38"
  input: "report_uninitialized_variables/IsVariableInitialized_39"
  input: "report_uninitialized_variables/IsVariableInitialized_40"
  input: "report_uninitialized_variables/IsVariableInitialized_41"
  input: "report_uninitialized_variables/IsVariableInitialized_42"
  input: "report_uninitialized_variables/IsVariableInitialized_43"
  input: "report_uninitialized_variables/IsVariableInitialized_44"
  input: "report_uninitialized_variables/IsVariableInitialized_45"
  input: "report_uninitialized_variables/IsVariableInitialized_46"
  input: "report_uninitialized_variables/IsVariableInitialized_47"
  input: "report_uninitialized_variables/IsVariableInitialized_48"
  input: "report_uninitialized_variables/IsVariableInitialized_49"
  input: "report_uninitialized_variables/IsVariableInitialized_50"
  input: "report_uninitialized_variables/IsVariableInitialized_51"
  input: "report_uninitialized_variables/IsVariableInitialized_52"
  input: "report_uninitialized_variables/IsVariableInitialized_53"
  input: "report_uninitialized_variables/IsVariableInitialized_54"
  input: "report_uninitialized_variables/IsVariableInitialized_55"
  input: "report_uninitialized_variables/IsVariableInitialized_56"
  input: "report_uninitialized_variables/IsVariableInitialized_57"
  input: "report_uninitialized_variables/IsVariableInitialized_58"
  input: "report_uninitialized_variables/IsVariableInitialized_59"
  input: "report_uninitialized_variables/IsVariableInitialized_60"
  input: "report_uninitialized_variables/IsVariableInitialized_61"
  input: "report_uninitialized_variables/IsVariableInitialized_62"
  input: "report_uninitialized_variables/IsVariableInitialized_63"
  input: "report_uninitialized_variables/IsVariableInitialized_64"
  input: "report_uninitialized_variables/IsVariableInitialized_65"
  input: "report_uninitialized_variables/IsVariableInitialized_66"
  input: "report_uninitialized_variables/IsVariableInitialized_67"
  input: "report_uninitialized_variables/IsVariableInitialized_68"
  input: "report_uninitialized_variables/IsVariableInitialized_69"
  input: "report_uninitialized_variables/IsVariableInitialized_70"
  input: "report_uninitialized_variables/IsVariableInitialized_71"
  input: "report_uninitialized_variables/IsVariableInitialized_72"
  input: "report_uninitialized_variables/IsVariableInitialized_73"
  input: "report_uninitialized_variables/IsVariableInitialized_74"
  input: "report_uninitialized_variables/IsVariableInitialized_75"
  input: "report_uninitialized_variables/IsVariableInitialized_76"
  input: "report_uninitialized_variables/IsVariableInitialized_77"
  input: "report_uninitialized_variables/IsVariableInitialized_78"
  input: "report_uninitialized_variables/IsVariableInitialized_79"
  input: "report_uninitialized_variables/IsVariableInitialized_80"
  input: "report_uninitialized_variables/IsVariableInitialized_81"
  input: "report_uninitialized_variables/IsVariableInitialized_82"
  input: "report_uninitialized_variables/IsVariableInitialized_83"
  input: "report_uninitialized_variables/IsVariableInitialized_84"
  input: "report_uninitialized_variables/IsVariableInitialized_85"
  input: "report_uninitialized_variables/IsVariableInitialized_86"
  input: "report_uninitialized_variables/IsVariableInitialized_87"
  input: "report_uninitialized_variables/IsVariableInitialized_88"
  input: "report_uninitialized_variables/IsVariableInitialized_89"
  input: "report_uninitialized_variables/IsVariableInitialized_90"
  input: "report_uninitialized_variables/IsVariableInitialized_91"
  input: "report_uninitialized_variables/IsVariableInitialized_92"
  input: "report_uninitialized_variables/IsVariableInitialized_93"
  input: "report_uninitialized_variables/IsVariableInitialized_94"
  input: "report_uninitialized_variables/IsVariableInitialized_95"
  device: "/device:CPU:0"
  attr {
    key: "N"
    value {
      i: 96
    }
  }
  attr {
    key: "T"
    value {
      type: DT_BOOL
    }
  }
  attr {
    key: "_output_shapes"
    value {
      list {
        shape {
          dim {
            size: 96
          }
        }
      }
    }
  }
  attr {
    key: "axis"
    value {
      i: 0
    }
  }
}
node {
  name: "report_uninitialized_variables/LogicalNot"
  op: "LogicalNot"
  input: "report_uninitialized_variables/stack"
  device: "/device:CPU:0"
  attr {
    key: "_output_shapes"
    value {
      list {
        shape {
          dim {
            size: 96
          }
        }
      }
    }
  }
}
node {
  name: "report_uninitialized_variables/Const"
  op: "Const"
  device: "/device:CPU:0"
  attr {
    key: "_output_shapes"
    value {
      list {
        shape {
          dim {
            size: 96
          }
        }
      }
    }
  }
  attr {
    key: "dtype"
    value {
      type: DT_STRING
    }
  }
  attr {
    key: "value"
    value {
      tensor {
        dtype: DT_STRING
        tensor_shape {
          dim {
            size: 96
          }
        }
        string_val: "CONV/conv_1/w"
        string_val: "CONV/conv_1/biases"
        string_val: "CONV/conv_1/BatchNorm/beta"
        string_val: "CONV/conv_1/BatchNorm/gamma"
        string_val: "CONV/conv_1/BatchNorm/moving_mean"
        string_val: "CONV/conv_1/BatchNorm/moving_variance"
        string_val: "CONV/conv_2/w"
        string_val: "CONV/conv_2/biases"
        string_val: "CONV/conv_2/BatchNorm/beta"
        string_val: "CONV/conv_2/BatchNorm/gamma"
        string_val: "CONV/conv_2/BatchNorm/moving_mean"
        string_val: "CONV/conv_2/BatchNorm/moving_variance"
        string_val: "CONV/conv_3/w"
        string_val: "CONV/conv_3/biases"
        string_val: "CONV/conv_3/BatchNorm/beta"
        string_val: "CONV/conv_3/BatchNorm/gamma"
        string_val: "CONV/conv_3/BatchNorm/moving_mean"
        string_val: "CONV/conv_3/BatchNorm/moving_variance"
        string_val: "CONV/conv_4/w"
        string_val: "CONV/conv_4/biases"
        string_val: "CONV/conv_4/BatchNorm/beta"
        string_val: "CONV/conv_4/BatchNorm/gamma"
        string_val: "CONV/conv_4/BatchNorm/moving_mean"
        string_val: "CONV/conv_4/BatchNorm/moving_variance"
        string_val: "CONV/fully_connected/weights"
        string_val: "CONV/fully_connected/biases"
        string_val: "CONV/fully_connected_1/weights"
        string_val: "CONV/fully_connected_1/biases"
        string_val: "CONV/fully_connected_2/weights"
        string_val: "CONV/fully_connected_2/biases"
        string_val: "f_phi/fully_connected/weights"
        string_val: "f_phi/fully_connected/biases"
        string_val: "f_phi/fully_connected_1/weights"
        string_val: "f_phi/fully_connected_1/biases"
        string_val: "f_phi/fully_connected_2/weights"
        string_val: "f_phi/fully_connected_2/biases"
        string_val: "global_step"
        string_val: "optimizer_loss/learning_rate"
        string_val: "optimizer_loss/beta1_power"
        string_val: "optimizer_loss/beta2_power"
        string_val: "optimizer_loss/CONV/conv_1/w/Adam"
        string_val: "optimizer_loss/CONV/conv_1/w/Adam_1"
        string_val: "optimizer_loss/CONV/conv_1/biases/Adam"
        string_val: "optimizer_loss/CONV/conv_1/biases/Adam_1"
        string_val: "optimizer_loss/CONV/conv_1/BatchNorm/beta/Adam"
        string_val: "optimizer_loss/CONV/conv_1/BatchNorm/beta/Adam_1"
        string_val: "optimizer_loss/CONV/conv_1/BatchNorm/gamma/Adam"
        string_val: "optimizer_loss/CONV/conv_1/BatchNorm/gamma/Adam_1"
        string_val: "optimizer_loss/CONV/conv_2/w/Adam"
        string_val: "optimizer_loss/CONV/conv_2/w/Adam_1"
        string_val: "optimizer_loss/CONV/conv_2/biases/Adam"
        string_val: "optimizer_loss/CONV/conv_2/biases/Adam_1"
        string_val: "optimizer_loss/CONV/conv_2/BatchNorm/beta/Adam"
        string_val: "optimizer_loss/CONV/conv_2/BatchNorm/beta/Adam_1"
        string_val: "optimizer_loss/CONV/conv_2/BatchNorm/gamma/Adam"
        string_val: "optimizer_loss/CONV/conv_2/BatchNorm/gamma/Adam_1"
        string_val: "optimizer_loss/CONV/conv_3/w/Adam"
        string_val: "optimizer_loss/CONV/conv_3/w/Adam_1"
        string_val: "optimizer_loss/CONV/conv_3/biases/Adam"
        string_val: "optimizer_loss/CONV/conv_3/biases/Adam_1"
        string_val: "optimizer_loss/CONV/conv_3/BatchNorm/beta/Adam"
        string_val: "optimizer_loss/CONV/conv_3/BatchNorm/beta/Adam_1"
        string_val: "optimizer_loss/CONV/conv_3/BatchNorm/gamma/Adam"
        string_val: "optimizer_loss/CONV/conv_3/BatchNorm/gamma/Adam_1"
        string_val: "optimizer_loss/CONV/conv_4/w/Adam"
        string_val: "optimizer_loss/CONV/conv_4/w/Adam_1"
        string_val: "optimizer_loss/CONV/conv_4/biases/Adam"
        string_val: "optimizer_loss/CONV/conv_4/biases/Adam_1"
        string_val: "optimizer_loss/CONV/conv_4/BatchNorm/beta/Adam"
        string_val: "optimizer_loss/CONV/conv_4/BatchNorm/beta/Adam_1"
        string_val: "optimizer_loss/CONV/conv_4/BatchNorm/gamma/Adam"
        string_val: "optimizer_loss/CONV/conv_4/BatchNorm/gamma/Adam_1"
        string_val: "optimizer_loss/CONV/fully_connected/weights/Adam"
        string_val: "optimizer_loss/CONV/fully_connected/weights/Adam_1"
        string_val: "optimizer_loss/CONV/fully_connected/biases/Adam"
        string_val: "optimizer_loss/CONV/fully_connected/biases/Adam_1"
        string_val: "optimizer_loss/CONV/fully_connected_1/weights/Adam"
        string_val: "optimizer_loss/CONV/fully_connected_1/weights/Adam_1"
        string_val: "optimizer_loss/CONV/fully_connected_1/biases/Adam"
        string_val: "optimizer_loss/CONV/fully_connected_1/biases/Adam_1"
        string_val: "optimizer_loss/CONV/fully_connected_2/weights/Adam"
        string_val: "optimizer_loss/CONV/fully_connected_2/weights/Adam_1"
        string_val: "optimizer_loss/CONV/fully_connected_2/biases/Adam"
        string_val: "optimizer_loss/CONV/fully_connected_2/biases/Adam_1"
        string_val: "optimizer_loss/f_phi/fully_connected/weights/Adam"
        string_val: "optimizer_loss/f_phi/fully_connected/weights/Adam_1"
        string_val: "optimizer_loss/f_phi/fully_connected/biases/Adam"
        string_val: "optimizer_loss/f_phi/fully_connected/biases/Adam_1"
        string_val: "optimizer_loss/f_phi/fully_connected_1/weights/Adam"
        string_val: "optimizer_loss/f_phi/fully_connected_1/weights/Adam_1"
        string_val: "optimizer_loss/f_phi/fully_connected_1/biases/Adam"
        string_val: "optimizer_loss/f_phi/fully_connected_1/biases/Adam_1"
        string_val: "optimizer_loss/f_phi/fully_connected_2/weights/Adam"
        string_val: "optimizer_loss/f_phi/fully_connected_2/weights/Adam_1"
        string_val: "optimizer_loss/f_phi/fully_connected_2/biases/Adam"
        string_val: "optimizer_loss/f_phi/fully_connected_2/biases/Adam_1"
      }
    }
  }
}
node {
  name: "report_uninitialized_variables/boolean_mask/Shape"
  op: "Const"
  device: "/device:CPU:0"
  attr {
    key: "_output_shapes"
    value {
      list {
        shape {
          dim {
            size: 1
          }
        }
      }
    }
  }
  attr {
    key: "dtype"
    value {
      type: DT_INT32
    }
  }
  attr {
    key: "value"
    value {
      tensor {
        dtype: DT_INT32
        tensor_shape {
          dim {
            size: 1
          }
        }
        int_val: 96
      }
    }
  }
}
node {
  name: "report_uninitialized_variables/boolean_mask/strided_slice/stack"
  op: "Const"
  device: "/device:CPU:0"
  attr {
    key: "_output_shapes"
    value {
      list {
        shape {
          dim {
            size: 1
          }
        }
      }
    }
  }
  attr {
    key: "dtype"
    value {
      type: DT_INT32
    }
  }
  attr {
    key: "value"
    value {
      tensor {
        dtype: DT_INT32
        tensor_shape {
          dim {
            size: 1
          }
        }
        int_val: 0
      }
    }
  }
}
node {
  name: "report_uninitialized_variables/boolean_mask/strided_slice/stack_1"
  op: "Const"
  device: "/device:CPU:0"
  attr {
    key: "_output_shapes"
    value {
      list {
        shape {
          dim {
            size: 1
          }
        }
      }
    }
  }
  attr {
    key: "dtype"
    value {
      type: DT_INT32
    }
  }
  attr {
    key: "value"
    value {
      tensor {
        dtype: DT_INT32
        tensor_shape {
          dim {
            size: 1
          }
        }
        int_val: 1
      }
    }
  }
}
node {
  name: "report_uninitialized_variables/boolean_mask/strided_slice/stack_2"
  op: "Const"
  device: "/device:CPU:0"
  attr {
    key: "_output_shapes"
    value {
      list {
        shape {
          dim {
            size: 1
          }
        }
      }
    }
  }
  attr {
    key: "dtype"
    value {
      type: DT_INT32
    }
  }
  attr {
    key: "value"
    value {
      tensor {
        dtype: DT_INT32
        tensor_shape {
          dim {
            size: 1
          }
        }
        int_val: 1
      }
    }
  }
}
node {
  name: "report_uninitialized_variables/boolean_mask/strided_slice"
  op: "StridedSlice"
  input: "report_uninitialized_variables/boolean_mask/Shape"
  input: "report_uninitialized_variables/boolean_mask/strided_slice/stack"
  input: "report_uninitialized_variables/boolean_mask/strided_slice/stack_1"
  input: "report_uninitialized_variables/boolean_mask/strided_slice/stack_2"
  device: "/device:CPU:0"
  attr {
    key: "Index"
    value {
      type: DT_INT32
    }
  }
  attr {
    key: "T"
    value {
      type: DT_INT32
    }
  }
  attr {
    key: "_output_shapes"
    value {
      list {
        shape {
          dim {
            size: 1
          }
        }
      }
    }
  }
  attr {
    key: "begin_mask"
    value {
      i: 1
    }
  }
  attr {
    key: "ellipsis_mask"
    value {
      i: 0
    }
  }
  attr {
    key: "end_mask"
    value {
      i: 0
    }
  }
  attr {
    key: "new_axis_mask"
    value {
      i: 0
    }
  }
  attr {
    key: "shrink_axis_mask"
    value {
      i: 0
    }
  }
}
node {
  name: "report_uninitialized_variables/boolean_mask/Prod/reduction_indices"
  op: "Const"
  device: "/device:CPU:0"
  attr {
    key: "_output_shapes"
    value {
      list {
        shape {
          dim {
            size: 1
          }
        }
      }
    }
  }
  attr {
    key: "dtype"
    value {
      type: DT_INT32
    }
  }
  attr {
    key: "value"
    value {
      tensor {
        dtype: DT_INT32
        tensor_shape {
          dim {
            size: 1
          }
        }
        int_val: 0
      }
    }
  }
}
node {
  name: "report_uninitialized_variables/boolean_mask/Prod"
  op: "Prod"
  input: "report_uninitialized_variables/boolean_mask/strided_slice"
  input: "report_uninitialized_variables/boolean_mask/Prod/reduction_indices"
  device: "/device:CPU:0"
  attr {
    key: "T"
    value {
      type: DT_INT32
    }
  }
  attr {
    key: "Tidx"
    value {
      type: DT_INT32
    }
  }
  attr {
    key: "_output_shapes"
    value {
      list {
        shape {
        }
      }
    }
  }
  attr {
    key: "keep_dims"
    value {
      b: false
    }
  }
}
node {
  name: "report_uninitialized_variables/boolean_mask/Shape_1"
  op: "Const"
  device: "/device:CPU:0"
  attr {
    key: "_output_shapes"
    value {
      list {
        shape {
          dim {
            size: 1
          }
        }
      }
    }
  }
  attr {
    key: "dtype"
    value {
      type: DT_INT32
    }
  }
  attr {
    key: "value"
    value {
      tensor {
        dtype: DT_INT32
        tensor_shape {
          dim {
            size: 1
          }
        }
        int_val: 96
      }
    }
  }
}
node {
  name: "report_uninitialized_variables/boolean_mask/strided_slice_1/stack"
  op: "Const"
  device: "/device:CPU:0"
  attr {
    key: "_output_shapes"
    value {
      list {
        shape {
          dim {
            size: 1
          }
        }
      }
    }
  }
  attr {
    key: "dtype"
    value {
      type: DT_INT32
    }
  }
  attr {
    key: "value"
    value {
      tensor {
        dtype: DT_INT32
        tensor_shape {
          dim {
            size: 1
          }
        }
        int_val: 1
      }
    }
  }
}
node {
  name: "report_uninitialized_variables/boolean_mask/strided_slice_1/stack_1"
  op: "Const"
  device: "/device:CPU:0"
  attr {
    key: "_output_shapes"
    value {
      list {
        shape {
          dim {
            size: 1
          }
        }
      }
    }
  }
  attr {
    key: "dtype"
    value {
      type: DT_INT32
    }
  }
  attr {
    key: "value"
    value {
      tensor {
        dtype: DT_INT32
        tensor_shape {
          dim {
            size: 1
          }
        }
        int_val: 0
      }
    }
  }
}
node {
  name: "report_uninitialized_variables/boolean_mask/strided_slice_1/stack_2"
  op: "Const"
  device: "/device:CPU:0"
  attr {
    key: "_output_shapes"
    value {
      list {
        shape {
          dim {
            size: 1
          }
        }
      }
    }
  }
  attr {
    key: "dtype"
    value {
      type: DT_INT32
    }
  }
  attr {
    key: "value"
    value {
      tensor {
        dtype: DT_INT32
        tensor_shape {
          dim {
            size: 1
          }
        }
        int_val: 1
      }
    }
  }
}
node {
  name: "report_uninitialized_variables/boolean_mask/strided_slice_1"
  op: "StridedSlice"
  input: "report_uninitialized_variables/boolean_mask/Shape_1"
  input: "report_uninitialized_variables/boolean_mask/strided_slice_1/stack"
  input: "report_uninitialized_variables/boolean_mask/strided_slice_1/stack_1"
  input: "report_uninitialized_variables/boolean_mask/strided_slice_1/stack_2"
  device: "/device:CPU:0"
  attr {
    key: "Index"
    value {
      type: DT_INT32
    }
  }
  attr {
    key: "T"
    value {
      type: DT_INT32
    }
  }
  attr {
    key: "_output_shapes"
    value {
      list {
        shape {
          dim {
          }
        }
      }
    }
  }
  attr {
    key: "begin_mask"
    value {
      i: 0
    }
  }
  attr {
    key: "ellipsis_mask"
    value {
      i: 0
    }
  }
  attr {
    key: "end_mask"
    value {
      i: 1
    }
  }
  attr {
    key: "new_axis_mask"
    value {
      i: 0
    }
  }
  attr {
    key: "shrink_axis_mask"
    value {
      i: 0
    }
  }
}
node {
  name: "report_uninitialized_variables/boolean_mask/concat/values_0"
  op: "Pack"
  input: "report_uninitialized_variables/boolean_mask/Prod"
  device: "/device:CPU:0"
  attr {
    key: "N"
    value {
      i: 1
    }
  }
  attr {
    key: "T"
    value {
      type: DT_INT32
    }
  }
  attr {
    key: "_output_shapes"
    value {
      list {
        shape {
          dim {
            size: 1
          }
        }
      }
    }
  }
  attr {
    key: "axis"
    value {
      i: 0
    }
  }
}
node {
  name: "report_uninitialized_variables/boolean_mask/concat/axis"
  op: "Const"
  device: "/device:CPU:0"
  attr {
    key: "_output_shapes"
    value {
      list {
        shape {
        }
      }
    }
  }
  attr {
    key: "dtype"
    value {
      type: DT_INT32
    }
  }
  attr {
    key: "value"
    value {
      tensor {
        dtype: DT_INT32
        tensor_shape {
        }
        int_val: 0
      }
    }
  }
}
node {
  name: "report_uninitialized_variables/boolean_mask/concat"
  op: "ConcatV2"
  input: "report_uninitialized_variables/boolean_mask/concat/values_0"
  input: "report_uninitialized_variables/boolean_mask/strided_slice_1"
  input: "report_uninitialized_variables/boolean_mask/concat/axis"
  device: "/device:CPU:0"
  attr {
    key: "N"
    value {
      i: 2
    }
  }
  attr {
    key: "T"
    value {
      type: DT_INT32
    }
  }
  attr {
    key: "Tidx"
    value {
      type: DT_INT32
    }
  }
  attr {
    key: "_output_shapes"
    value {
      list {
        shape {
          dim {
            size: 1
          }
        }
      }
    }
  }
}
node {
  name: "report_uninitialized_variables/boolean_mask/Reshape"
  op: "Reshape"
  input: "report_uninitialized_variables/Const"
  input: "report_uninitialized_variables/boolean_mask/concat"
  device: "/device:CPU:0"
  attr {
    key: "T"
    value {
      type: DT_STRING
    }
  }
  attr {
    key: "Tshape"
    value {
      type: DT_INT32
    }
  }
  attr {
    key: "_output_shapes"
    value {
      list {
        shape {
          dim {
            size: 96
          }
        }
      }
    }
  }
}
node {
  name: "report_uninitialized_variables/boolean_mask/Reshape_1/shape"
  op: "Const"
  device: "/device:CPU:0"
  attr {
    key: "_output_shapes"
    value {
      list {
        shape {
          dim {
            size: 1
          }
        }
      }
    }
  }
  attr {
    key: "dtype"
    value {
      type: DT_INT32
    }
  }
  attr {
    key: "value"
    value {
      tensor {
        dtype: DT_INT32
        tensor_shape {
          dim {
            size: 1
          }
        }
        int_val: -1
      }
    }
  }
}
node {
  name: "report_uninitialized_variables/boolean_mask/Reshape_1"
  op: "Reshape"
  input: "report_uninitialized_variables/LogicalNot"
  input: "report_uninitialized_variables/boolean_mask/Reshape_1/shape"
  device: "/device:CPU:0"
  attr {
    key: "T"
    value {
      type: DT_BOOL
    }
  }
  attr {
    key: "Tshape"
    value {
      type: DT_INT32
    }
  }
  attr {
    key: "_output_shapes"
    value {
      list {
        shape {
          dim {
            size: 96
          }
        }
      }
    }
  }
}
node {
  name: "report_uninitialized_variables/boolean_mask/Where"
  op: "Where"
  input: "report_uninitialized_variables/boolean_mask/Reshape_1"
  device: "/device:CPU:0"
  attr {
    key: "_output_shapes"
    value {
      list {
        shape {
          dim {
            size: -1
          }
          dim {
            size: 1
          }
        }
      }
    }
  }
}
node {
  name: "report_uninitialized_variables/boolean_mask/Squeeze"
  op: "Squeeze"
  input: "report_uninitialized_variables/boolean_mask/Where"
  device: "/device:CPU:0"
  attr {
    key: "T"
    value {
      type: DT_INT64
    }
  }
  attr {
    key: "_output_shapes"
    value {
      list {
        shape {
          dim {
            size: -1
          }
        }
      }
    }
  }
  attr {
    key: "squeeze_dims"
    value {
      list {
        i: 1
      }
    }
  }
}
node {
  name: "report_uninitialized_variables/boolean_mask/Gather"
  op: "Gather"
  input: "report_uninitialized_variables/boolean_mask/Reshape"
  input: "report_uninitialized_variables/boolean_mask/Squeeze"
  device: "/device:CPU:0"
  attr {
    key: "Tindices"
    value {
      type: DT_INT64
    }
  }
  attr {
    key: "Tparams"
    value {
      type: DT_STRING
    }
  }
  attr {
    key: "_output_shapes"
    value {
      list {
        shape {
          dim {
            size: -1
          }
        }
      }
    }
  }
  attr {
    key: "validate_indices"
    value {
      b: true
    }
  }
}
node {
  name: "init"
  op: "NoOp"
  input: "^CONV/conv_1/w/Assign"
  input: "^CONV/conv_1/biases/Assign"
  input: "^CONV/conv_1/BatchNorm/beta/Assign"
  input: "^CONV/conv_1/BatchNorm/gamma/Assign"
  input: "^CONV/conv_1/BatchNorm/moving_mean/Assign"
  input: "^CONV/conv_1/BatchNorm/moving_variance/Assign"
  input: "^CONV/conv_2/w/Assign"
  input: "^CONV/conv_2/biases/Assign"
  input: "^CONV/conv_2/BatchNorm/beta/Assign"
  input: "^CONV/conv_2/BatchNorm/gamma/Assign"
  input: "^CONV/conv_2/BatchNorm/moving_mean/Assign"
  input: "^CONV/conv_2/BatchNorm/moving_variance/Assign"
  input: "^CONV/conv_3/w/Assign"
  input: "^CONV/conv_3/biases/Assign"
  input: "^CONV/conv_3/BatchNorm/beta/Assign"
  input: "^CONV/conv_3/BatchNorm/gamma/Assign"
  input: "^CONV/conv_3/BatchNorm/moving_mean/Assign"
  input: "^CONV/conv_3/BatchNorm/moving_variance/Assign"
  input: "^CONV/conv_4/w/Assign"
  input: "^CONV/conv_4/biases/Assign"
  input: "^CONV/conv_4/BatchNorm/beta/Assign"
  input: "^CONV/conv_4/BatchNorm/gamma/Assign"
  input: "^CONV/conv_4/BatchNorm/moving_mean/Assign"
  input: "^CONV/conv_4/BatchNorm/moving_variance/Assign"
  input: "^CONV/fully_connected/weights/Assign"
  input: "^CONV/fully_connected/biases/Assign"
  input: "^CONV/fully_connected_1/weights/Assign"
  input: "^CONV/fully_connected_1/biases/Assign"
  input: "^CONV/fully_connected_2/weights/Assign"
  input: "^CONV/fully_connected_2/biases/Assign"
  input: "^f_phi/fully_connected/weights/Assign"
  input: "^f_phi/fully_connected/biases/Assign"
  input: "^f_phi/fully_connected_1/weights/Assign"
  input: "^f_phi/fully_connected_1/biases/Assign"
  input: "^f_phi/fully_connected_2/weights/Assign"
  input: "^f_phi/fully_connected_2/biases/Assign"
  input: "^global_step/Assign"
  input: "^optimizer_loss/learning_rate/Assign"
  input: "^optimizer_loss/beta1_power/Assign"
  input: "^optimizer_loss/beta2_power/Assign"
  input: "^optimizer_loss/CONV/conv_1/w/Adam/Assign"
  input: "^optimizer_loss/CONV/conv_1/w/Adam_1/Assign"
  input: "^optimizer_loss/CONV/conv_1/biases/Adam/Assign"
  input: "^optimizer_loss/CONV/conv_1/biases/Adam_1/Assign"
  input: "^optimizer_loss/CONV/conv_1/BatchNorm/beta/Adam/Assign"
  input: "^optimizer_loss/CONV/conv_1/BatchNorm/beta/Adam_1/Assign"
  input: "^optimizer_loss/CONV/conv_1/BatchNorm/gamma/Adam/Assign"
  input: "^optimizer_loss/CONV/conv_1/BatchNorm/gamma/Adam_1/Assign"
  input: "^optimizer_loss/CONV/conv_2/w/Adam/Assign"
  input: "^optimizer_loss/CONV/conv_2/w/Adam_1/Assign"
  input: "^optimizer_loss/CONV/conv_2/biases/Adam/Assign"
  input: "^optimizer_loss/CONV/conv_2/biases/Adam_1/Assign"
  input: "^optimizer_loss/CONV/conv_2/BatchNorm/beta/Adam/Assign"
  input: "^optimizer_loss/CONV/conv_2/BatchNorm/beta/Adam_1/Assign"
  input: "^optimizer_loss/CONV/conv_2/BatchNorm/gamma/Adam/Assign"
  input: "^optimizer_loss/CONV/conv_2/BatchNorm/gamma/Adam_1/Assign"
  input: "^optimizer_loss/CONV/conv_3/w/Adam/Assign"
  input: "^optimizer_loss/CONV/conv_3/w/Adam_1/Assign"
  input: "^optimizer_loss/CONV/conv_3/biases/Adam/Assign"
  input: "^optimizer_loss/CONV/conv_3/biases/Adam_1/Assign"
  input: "^optimizer_loss/CONV/conv_3/BatchNorm/beta/Adam/Assign"
  input: "^optimizer_loss/CONV/conv_3/BatchNorm/beta/Adam_1/Assign"
  input: "^optimizer_loss/CONV/conv_3/BatchNorm/gamma/Adam/Assign"
  input: "^optimizer_loss/CONV/conv_3/BatchNorm/gamma/Adam_1/Assign"
  input: "^optimizer_loss/CONV/conv_4/w/Adam/Assign"
  input: "^optimizer_loss/CONV/conv_4/w/Adam_1/Assign"
  input: "^optimizer_loss/CONV/conv_4/biases/Adam/Assign"
  input: "^optimizer_loss/CONV/conv_4/biases/Adam_1/Assign"
  input: "^optimizer_loss/CONV/conv_4/BatchNorm/beta/Adam/Assign"
  input: "^optimizer_loss/CONV/conv_4/BatchNorm/beta/Adam_1/Assign"
  input: "^optimizer_loss/CONV/conv_4/BatchNorm/gamma/Adam/Assign"
  input: "^optimizer_loss/CONV/conv_4/BatchNorm/gamma/Adam_1/Assign"
  input: "^optimizer_loss/CONV/fully_connected/weights/Adam/Assign"
  input: "^optimizer_loss/CONV/fully_connected/weights/Adam_1/Assign"
  input: "^optimizer_loss/CONV/fully_connected/biases/Adam/Assign"
  input: "^optimizer_loss/CONV/fully_connected/biases/Adam_1/Assign"
  input: "^optimizer_loss/CONV/fully_connected_1/weights/Adam/Assign"
  input: "^optimizer_loss/CONV/fully_connected_1/weights/Adam_1/Assign"
  input: "^optimizer_loss/CONV/fully_connected_1/biases/Adam/Assign"
  input: "^optimizer_loss/CONV/fully_connected_1/biases/Adam_1/Assign"
  input: "^optimizer_loss/CONV/fully_connected_2/weights/Adam/Assign"
  input: "^optimizer_loss/CONV/fully_connected_2/weights/Adam_1/Assign"
  input: "^optimizer_loss/CONV/fully_connected_2/biases/Adam/Assign"
  input: "^optimizer_loss/CONV/fully_connected_2/biases/Adam_1/Assign"
  input: "^optimizer_loss/f_phi/fully_connected/weights/Adam/Assign"
  input: "^optimizer_loss/f_phi/fully_connected/weights/Adam_1/Assign"
  input: "^optimizer_loss/f_phi/fully_connected/biases/Adam/Assign"
  input: "^optimizer_loss/f_phi/fully_connected/biases/Adam_1/Assign"
  input: "^optimizer_loss/f_phi/fully_connected_1/weights/Adam/Assign"
  input: "^optimizer_loss/f_phi/fully_connected_1/weights/Adam_1/Assign"
  input: "^optimizer_loss/f_phi/fully_connected_1/biases/Adam/Assign"
  input: "^optimizer_loss/f_phi/fully_connected_1/biases/Adam_1/Assign"
  input: "^optimizer_loss/f_phi/fully_connected_2/weights/Adam/Assign"
  input: "^optimizer_loss/f_phi/fully_connected_2/weights/Adam_1/Assign"
  input: "^optimizer_loss/f_phi/fully_connected_2/biases/Adam/Assign"
  input: "^optimizer_loss/f_phi/fully_connected_2/biases/Adam_1/Assign"
}
node {
  name: "init_1"
  op: "NoOp"
}
node {
  name: "init_all_tables"
  op: "NoOp"
}
node {
  name: "group_deps"
  op: "NoOp"
  input: "^init_1"
  input: "^init_all_tables"
}
versions {
  producer: 24
}
